HSPAN(
  (sub_mean): MeanShift(3, 3, kernel_size=(1, 1), stride=(1, 1))
  (add_mean): MeanShift(3, 3, kernel_size=(1, 1), stride=(1, 1))
  (head): Sequential(
    (0): Conv2d(3, 192, kernel_size=(3, 3), stride=(1, 1), padding=(1, 1))
  )
  (body): Sequential(
    (0): HSPAM(
      (body): Sequential(
        (0): LEB(
          (body): Sequential(
            (0): Conv2d(192, 192, kernel_size=(3, 3), stride=(1, 1), padding=(1, 1))
            (1): ReLU(inplace=True)
            (2): Conv2d(192, 192, kernel_size=(3, 3), stride=(1, 1), padding=(1, 1))
          )
        )
        (1): LEB(
          (body): Sequential(
            (0): Conv2d(192, 192, kernel_size=(3, 3), stride=(1, 1), padding=(1, 1))
            (1): ReLU(inplace=True)
            (2): Conv2d(192, 192, kernel_size=(3, 3), stride=(1, 1), padding=(1, 1))
          )
        )
        (2): LEB(
          (body): Sequential(
            (0): Conv2d(192, 192, kernel_size=(3, 3), stride=(1, 1), padding=(1, 1))
            (1): ReLU(inplace=True)
            (2): Conv2d(192, 192, kernel_size=(3, 3), stride=(1, 1), padding=(1, 1))
          )
        )
        (3): LEB(
          (body): Sequential(
            (0): Conv2d(192, 192, kernel_size=(3, 3), stride=(1, 1), padding=(1, 1))
            (1): ReLU(inplace=True)
            (2): Conv2d(192, 192, kernel_size=(3, 3), stride=(1, 1), padding=(1, 1))
          )
        )
        (4): HSPA(
          (conv_match1): BasicBlock(
            (0): Conv2d(192, 96, kernel_size=(1, 1), stride=(1, 1))
            (1): PReLU(num_parameters=1)
          )
          (conv_match2): BasicBlock(
            (0): Conv2d(192, 96, kernel_size=(1, 1), stride=(1, 1))
            (1): PReLU(num_parameters=1)
          )
          (conv_assembly): BasicBlock(
            (0): Conv2d(192, 192, kernel_size=(1, 1), stride=(1, 1))
            (1): PReLU(num_parameters=1)
          )
          (ST): SoftThresholdingOperation()
        )
        (5): Conv2d(192, 192, kernel_size=(3, 3), stride=(1, 1), padding=(1, 1))
      )
    )
    (1): HSPAM(
      (body): Sequential(
        (0): LEB(
          (body): Sequential(
            (0): Conv2d(192, 192, kernel_size=(3, 3), stride=(1, 1), padding=(1, 1))
            (1): ReLU(inplace=True)
            (2): Conv2d(192, 192, kernel_size=(3, 3), stride=(1, 1), padding=(1, 1))
          )
        )
        (1): LEB(
          (body): Sequential(
            (0): Conv2d(192, 192, kernel_size=(3, 3), stride=(1, 1), padding=(1, 1))
            (1): ReLU(inplace=True)
            (2): Conv2d(192, 192, kernel_size=(3, 3), stride=(1, 1), padding=(1, 1))
          )
        )
        (2): LEB(
          (body): Sequential(
            (0): Conv2d(192, 192, kernel_size=(3, 3), stride=(1, 1), padding=(1, 1))
            (1): ReLU(inplace=True)
            (2): Conv2d(192, 192, kernel_size=(3, 3), stride=(1, 1), padding=(1, 1))
          )
        )
        (3): LEB(
          (body): Sequential(
            (0): Conv2d(192, 192, kernel_size=(3, 3), stride=(1, 1), padding=(1, 1))
            (1): ReLU(inplace=True)
            (2): Conv2d(192, 192, kernel_size=(3, 3), stride=(1, 1), padding=(1, 1))
          )
        )
        (4): HSPA(
          (conv_match1): BasicBlock(
            (0): Conv2d(192, 96, kernel_size=(1, 1), stride=(1, 1))
            (1): PReLU(num_parameters=1)
          )
          (conv_match2): BasicBlock(
            (0): Conv2d(192, 96, kernel_size=(1, 1), stride=(1, 1))
            (1): PReLU(num_parameters=1)
          )
          (conv_assembly): BasicBlock(
            (0): Conv2d(192, 192, kernel_size=(1, 1), stride=(1, 1))
            (1): PReLU(num_parameters=1)
          )
          (ST): SoftThresholdingOperation()
        )
        (5): Conv2d(192, 192, kernel_size=(3, 3), stride=(1, 1), padding=(1, 1))
      )
    )
    (2): HSPAM(
      (body): Sequential(
        (0): LEB(
          (body): Sequential(
            (0): Conv2d(192, 192, kernel_size=(3, 3), stride=(1, 1), padding=(1, 1))
            (1): ReLU(inplace=True)
            (2): Conv2d(192, 192, kernel_size=(3, 3), stride=(1, 1), padding=(1, 1))
          )
        )
        (1): LEB(
          (body): Sequential(
            (0): Conv2d(192, 192, kernel_size=(3, 3), stride=(1, 1), padding=(1, 1))
            (1): ReLU(inplace=True)
            (2): Conv2d(192, 192, kernel_size=(3, 3), stride=(1, 1), padding=(1, 1))
          )
        )
        (2): LEB(
          (body): Sequential(
            (0): Conv2d(192, 192, kernel_size=(3, 3), stride=(1, 1), padding=(1, 1))
            (1): ReLU(inplace=True)
            (2): Conv2d(192, 192, kernel_size=(3, 3), stride=(1, 1), padding=(1, 1))
          )
        )
        (3): LEB(
          (body): Sequential(
            (0): Conv2d(192, 192, kernel_size=(3, 3), stride=(1, 1), padding=(1, 1))
            (1): ReLU(inplace=True)
            (2): Conv2d(192, 192, kernel_size=(3, 3), stride=(1, 1), padding=(1, 1))
          )
        )
        (4): HSPA(
          (conv_match1): BasicBlock(
            (0): Conv2d(192, 96, kernel_size=(1, 1), stride=(1, 1))
            (1): PReLU(num_parameters=1)
          )
          (conv_match2): BasicBlock(
            (0): Conv2d(192, 96, kernel_size=(1, 1), stride=(1, 1))
            (1): PReLU(num_parameters=1)
          )
          (conv_assembly): BasicBlock(
            (0): Conv2d(192, 192, kernel_size=(1, 1), stride=(1, 1))
            (1): PReLU(num_parameters=1)
          )
          (ST): SoftThresholdingOperation()
        )
        (5): Conv2d(192, 192, kernel_size=(3, 3), stride=(1, 1), padding=(1, 1))
      )
    )
    (3): HSPAM(
      (body): Sequential(
        (0): LEB(
          (body): Sequential(
            (0): Conv2d(192, 192, kernel_size=(3, 3), stride=(1, 1), padding=(1, 1))
            (1): ReLU(inplace=True)
            (2): Conv2d(192, 192, kernel_size=(3, 3), stride=(1, 1), padding=(1, 1))
          )
        )
        (1): LEB(
          (body): Sequential(
            (0): Conv2d(192, 192, kernel_size=(3, 3), stride=(1, 1), padding=(1, 1))
            (1): ReLU(inplace=True)
            (2): Conv2d(192, 192, kernel_size=(3, 3), stride=(1, 1), padding=(1, 1))
          )
        )
        (2): LEB(
          (body): Sequential(
            (0): Conv2d(192, 192, kernel_size=(3, 3), stride=(1, 1), padding=(1, 1))
            (1): ReLU(inplace=True)
            (2): Conv2d(192, 192, kernel_size=(3, 3), stride=(1, 1), padding=(1, 1))
          )
        )
        (3): LEB(
          (body): Sequential(
            (0): Conv2d(192, 192, kernel_size=(3, 3), stride=(1, 1), padding=(1, 1))
            (1): ReLU(inplace=True)
            (2): Conv2d(192, 192, kernel_size=(3, 3), stride=(1, 1), padding=(1, 1))
          )
        )
        (4): HSPA(
          (conv_match1): BasicBlock(
            (0): Conv2d(192, 96, kernel_size=(1, 1), stride=(1, 1))
            (1): PReLU(num_parameters=1)
          )
          (conv_match2): BasicBlock(
            (0): Conv2d(192, 96, kernel_size=(1, 1), stride=(1, 1))
            (1): PReLU(num_parameters=1)
          )
          (conv_assembly): BasicBlock(
            (0): Conv2d(192, 192, kernel_size=(1, 1), stride=(1, 1))
            (1): PReLU(num_parameters=1)
          )
          (ST): SoftThresholdingOperation()
        )
        (5): Conv2d(192, 192, kernel_size=(3, 3), stride=(1, 1), padding=(1, 1))
      )
    )
    (4): HSPAM(
      (body): Sequential(
        (0): LEB(
          (body): Sequential(
            (0): Conv2d(192, 192, kernel_size=(3, 3), stride=(1, 1), padding=(1, 1))
            (1): ReLU(inplace=True)
            (2): Conv2d(192, 192, kernel_size=(3, 3), stride=(1, 1), padding=(1, 1))
          )
        )
        (1): LEB(
          (body): Sequential(
            (0): Conv2d(192, 192, kernel_size=(3, 3), stride=(1, 1), padding=(1, 1))
            (1): ReLU(inplace=True)
            (2): Conv2d(192, 192, kernel_size=(3, 3), stride=(1, 1), padding=(1, 1))
          )
        )
        (2): LEB(
          (body): Sequential(
            (0): Conv2d(192, 192, kernel_size=(3, 3), stride=(1, 1), padding=(1, 1))
            (1): ReLU(inplace=True)
            (2): Conv2d(192, 192, kernel_size=(3, 3), stride=(1, 1), padding=(1, 1))
          )
        )
        (3): LEB(
          (body): Sequential(
            (0): Conv2d(192, 192, kernel_size=(3, 3), stride=(1, 1), padding=(1, 1))
            (1): ReLU(inplace=True)
            (2): Conv2d(192, 192, kernel_size=(3, 3), stride=(1, 1), padding=(1, 1))
          )
        )
        (4): HSPA(
          (conv_match1): BasicBlock(
            (0): Conv2d(192, 96, kernel_size=(1, 1), stride=(1, 1))
            (1): PReLU(num_parameters=1)
          )
          (conv_match2): BasicBlock(
            (0): Conv2d(192, 96, kernel_size=(1, 1), stride=(1, 1))
            (1): PReLU(num_parameters=1)
          )
          (conv_assembly): BasicBlock(
            (0): Conv2d(192, 192, kernel_size=(1, 1), stride=(1, 1))
            (1): PReLU(num_parameters=1)
          )
          (ST): SoftThresholdingOperation()
        )
        (5): Conv2d(192, 192, kernel_size=(3, 3), stride=(1, 1), padding=(1, 1))
      )
    )
    (5): HSPAM(
      (body): Sequential(
        (0): LEB(
          (body): Sequential(
            (0): Conv2d(192, 192, kernel_size=(3, 3), stride=(1, 1), padding=(1, 1))
            (1): ReLU(inplace=True)
            (2): Conv2d(192, 192, kernel_size=(3, 3), stride=(1, 1), padding=(1, 1))
          )
        )
        (1): LEB(
          (body): Sequential(
            (0): Conv2d(192, 192, kernel_size=(3, 3), stride=(1, 1), padding=(1, 1))
            (1): ReLU(inplace=True)
            (2): Conv2d(192, 192, kernel_size=(3, 3), stride=(1, 1), padding=(1, 1))
          )
        )
        (2): LEB(
          (body): Sequential(
            (0): Conv2d(192, 192, kernel_size=(3, 3), stride=(1, 1), padding=(1, 1))
            (1): ReLU(inplace=True)
            (2): Conv2d(192, 192, kernel_size=(3, 3), stride=(1, 1), padding=(1, 1))
          )
        )
        (3): LEB(
          (body): Sequential(
            (0): Conv2d(192, 192, kernel_size=(3, 3), stride=(1, 1), padding=(1, 1))
            (1): ReLU(inplace=True)
            (2): Conv2d(192, 192, kernel_size=(3, 3), stride=(1, 1), padding=(1, 1))
          )
        )
        (4): HSPA(
          (conv_match1): BasicBlock(
            (0): Conv2d(192, 96, kernel_size=(1, 1), stride=(1, 1))
            (1): PReLU(num_parameters=1)
          )
          (conv_match2): BasicBlock(
            (0): Conv2d(192, 96, kernel_size=(1, 1), stride=(1, 1))
            (1): PReLU(num_parameters=1)
          )
          (conv_assembly): BasicBlock(
            (0): Conv2d(192, 192, kernel_size=(1, 1), stride=(1, 1))
            (1): PReLU(num_parameters=1)
          )
          (ST): SoftThresholdingOperation()
        )
        (5): Conv2d(192, 192, kernel_size=(3, 3), stride=(1, 1), padding=(1, 1))
      )
    )
    (6): HSPAM(
      (body): Sequential(
        (0): LEB(
          (body): Sequential(
            (0): Conv2d(192, 192, kernel_size=(3, 3), stride=(1, 1), padding=(1, 1))
            (1): ReLU(inplace=True)
            (2): Conv2d(192, 192, kernel_size=(3, 3), stride=(1, 1), padding=(1, 1))
          )
        )
        (1): LEB(
          (body): Sequential(
            (0): Conv2d(192, 192, kernel_size=(3, 3), stride=(1, 1), padding=(1, 1))
            (1): ReLU(inplace=True)
            (2): Conv2d(192, 192, kernel_size=(3, 3), stride=(1, 1), padding=(1, 1))
          )
        )
        (2): LEB(
          (body): Sequential(
            (0): Conv2d(192, 192, kernel_size=(3, 3), stride=(1, 1), padding=(1, 1))
            (1): ReLU(inplace=True)
            (2): Conv2d(192, 192, kernel_size=(3, 3), stride=(1, 1), padding=(1, 1))
          )
        )
        (3): LEB(
          (body): Sequential(
            (0): Conv2d(192, 192, kernel_size=(3, 3), stride=(1, 1), padding=(1, 1))
            (1): ReLU(inplace=True)
            (2): Conv2d(192, 192, kernel_size=(3, 3), stride=(1, 1), padding=(1, 1))
          )
        )
        (4): HSPA(
          (conv_match1): BasicBlock(
            (0): Conv2d(192, 96, kernel_size=(1, 1), stride=(1, 1))
            (1): PReLU(num_parameters=1)
          )
          (conv_match2): BasicBlock(
            (0): Conv2d(192, 96, kernel_size=(1, 1), stride=(1, 1))
            (1): PReLU(num_parameters=1)
          )
          (conv_assembly): BasicBlock(
            (0): Conv2d(192, 192, kernel_size=(1, 1), stride=(1, 1))
            (1): PReLU(num_parameters=1)
          )
          (ST): SoftThresholdingOperation()
        )
        (5): Conv2d(192, 192, kernel_size=(3, 3), stride=(1, 1), padding=(1, 1))
      )
    )
    (7): HSPAM(
      (body): Sequential(
        (0): LEB(
          (body): Sequential(
            (0): Conv2d(192, 192, kernel_size=(3, 3), stride=(1, 1), padding=(1, 1))
            (1): ReLU(inplace=True)
            (2): Conv2d(192, 192, kernel_size=(3, 3), stride=(1, 1), padding=(1, 1))
          )
        )
        (1): LEB(
          (body): Sequential(
            (0): Conv2d(192, 192, kernel_size=(3, 3), stride=(1, 1), padding=(1, 1))
            (1): ReLU(inplace=True)
            (2): Conv2d(192, 192, kernel_size=(3, 3), stride=(1, 1), padding=(1, 1))
          )
        )
        (2): LEB(
          (body): Sequential(
            (0): Conv2d(192, 192, kernel_size=(3, 3), stride=(1, 1), padding=(1, 1))
            (1): ReLU(inplace=True)
            (2): Conv2d(192, 192, kernel_size=(3, 3), stride=(1, 1), padding=(1, 1))
          )
        )
        (3): LEB(
          (body): Sequential(
            (0): Conv2d(192, 192, kernel_size=(3, 3), stride=(1, 1), padding=(1, 1))
            (1): ReLU(inplace=True)
            (2): Conv2d(192, 192, kernel_size=(3, 3), stride=(1, 1), padding=(1, 1))
          )
        )
        (4): HSPA(
          (conv_match1): BasicBlock(
            (0): Conv2d(192, 96, kernel_size=(1, 1), stride=(1, 1))
            (1): PReLU(num_parameters=1)
          )
          (conv_match2): BasicBlock(
            (0): Conv2d(192, 96, kernel_size=(1, 1), stride=(1, 1))
            (1): PReLU(num_parameters=1)
          )
          (conv_assembly): BasicBlock(
            (0): Conv2d(192, 192, kernel_size=(1, 1), stride=(1, 1))
            (1): PReLU(num_parameters=1)
          )
          (ST): SoftThresholdingOperation()
        )
        (5): Conv2d(192, 192, kernel_size=(3, 3), stride=(1, 1), padding=(1, 1))
      )
    )
    (8): HSPAM(
      (body): Sequential(
        (0): LEB(
          (body): Sequential(
            (0): Conv2d(192, 192, kernel_size=(3, 3), stride=(1, 1), padding=(1, 1))
            (1): ReLU(inplace=True)
            (2): Conv2d(192, 192, kernel_size=(3, 3), stride=(1, 1), padding=(1, 1))
          )
        )
        (1): LEB(
          (body): Sequential(
            (0): Conv2d(192, 192, kernel_size=(3, 3), stride=(1, 1), padding=(1, 1))
            (1): ReLU(inplace=True)
            (2): Conv2d(192, 192, kernel_size=(3, 3), stride=(1, 1), padding=(1, 1))
          )
        )
        (2): LEB(
          (body): Sequential(
            (0): Conv2d(192, 192, kernel_size=(3, 3), stride=(1, 1), padding=(1, 1))
            (1): ReLU(inplace=True)
            (2): Conv2d(192, 192, kernel_size=(3, 3), stride=(1, 1), padding=(1, 1))
          )
        )
        (3): LEB(
          (body): Sequential(
            (0): Conv2d(192, 192, kernel_size=(3, 3), stride=(1, 1), padding=(1, 1))
            (1): ReLU(inplace=True)
            (2): Conv2d(192, 192, kernel_size=(3, 3), stride=(1, 1), padding=(1, 1))
          )
        )
        (4): HSPA(
          (conv_match1): BasicBlock(
            (0): Conv2d(192, 96, kernel_size=(1, 1), stride=(1, 1))
            (1): PReLU(num_parameters=1)
          )
          (conv_match2): BasicBlock(
            (0): Conv2d(192, 96, kernel_size=(1, 1), stride=(1, 1))
            (1): PReLU(num_parameters=1)
          )
          (conv_assembly): BasicBlock(
            (0): Conv2d(192, 192, kernel_size=(1, 1), stride=(1, 1))
            (1): PReLU(num_parameters=1)
          )
          (ST): SoftThresholdingOperation()
        )
        (5): Conv2d(192, 192, kernel_size=(3, 3), stride=(1, 1), padding=(1, 1))
      )
    )
    (9): HSPAM(
      (body): Sequential(
        (0): LEB(
          (body): Sequential(
            (0): Conv2d(192, 192, kernel_size=(3, 3), stride=(1, 1), padding=(1, 1))
            (1): ReLU(inplace=True)
            (2): Conv2d(192, 192, kernel_size=(3, 3), stride=(1, 1), padding=(1, 1))
          )
        )
        (1): LEB(
          (body): Sequential(
            (0): Conv2d(192, 192, kernel_size=(3, 3), stride=(1, 1), padding=(1, 1))
            (1): ReLU(inplace=True)
            (2): Conv2d(192, 192, kernel_size=(3, 3), stride=(1, 1), padding=(1, 1))
          )
        )
        (2): LEB(
          (body): Sequential(
            (0): Conv2d(192, 192, kernel_size=(3, 3), stride=(1, 1), padding=(1, 1))
            (1): ReLU(inplace=True)
            (2): Conv2d(192, 192, kernel_size=(3, 3), stride=(1, 1), padding=(1, 1))
          )
        )
        (3): LEB(
          (body): Sequential(
            (0): Conv2d(192, 192, kernel_size=(3, 3), stride=(1, 1), padding=(1, 1))
            (1): ReLU(inplace=True)
            (2): Conv2d(192, 192, kernel_size=(3, 3), stride=(1, 1), padding=(1, 1))
          )
        )
        (4): HSPA(
          (conv_match1): BasicBlock(
            (0): Conv2d(192, 96, kernel_size=(1, 1), stride=(1, 1))
            (1): PReLU(num_parameters=1)
          )
          (conv_match2): BasicBlock(
            (0): Conv2d(192, 96, kernel_size=(1, 1), stride=(1, 1))
            (1): PReLU(num_parameters=1)
          )
          (conv_assembly): BasicBlock(
            (0): Conv2d(192, 192, kernel_size=(1, 1), stride=(1, 1))
            (1): PReLU(num_parameters=1)
          )
          (ST): SoftThresholdingOperation()
        )
        (5): Conv2d(192, 192, kernel_size=(3, 3), stride=(1, 1), padding=(1, 1))
      )
    )
    (10): Conv2d(192, 192, kernel_size=(3, 3), stride=(1, 1), padding=(1, 1))
  )
  (tail): Sequential(
    (0): Upsampler(
      (0): Conv2d(192, 768, kernel_size=(3, 3), stride=(1, 1), padding=(1, 1))
      (1): PixelShuffle(upscale_factor=2)
      (2): Conv2d(192, 768, kernel_size=(3, 3), stride=(1, 1), padding=(1, 1))
      (3): PixelShuffle(upscale_factor=2)
    )
    (1): Conv2d(192, 3, kernel_size=(3, 3), stride=(1, 1), padding=(1, 1))
  )
)

Evaluation:
[Set5 x4]	PSNR: nan (Best: nan @epoch 1)
Forward: 41.01s

Saving...
Total: 41.01s

HSPAN(
  (sub_mean): MeanShift(3, 3, kernel_size=(1, 1), stride=(1, 1))
  (add_mean): MeanShift(3, 3, kernel_size=(1, 1), stride=(1, 1))
  (head): Sequential(
    (0): Conv2d(3, 192, kernel_size=(3, 3), stride=(1, 1), padding=(1, 1))
  )
  (body): Sequential(
    (0): HSPAM(
      (body): Sequential(
        (0): LEB(
          (body): Sequential(
            (0): Conv2d(192, 192, kernel_size=(3, 3), stride=(1, 1), padding=(1, 1))
            (1): ReLU(inplace=True)
            (2): Conv2d(192, 192, kernel_size=(3, 3), stride=(1, 1), padding=(1, 1))
          )
        )
        (1): LEB(
          (body): Sequential(
            (0): Conv2d(192, 192, kernel_size=(3, 3), stride=(1, 1), padding=(1, 1))
            (1): ReLU(inplace=True)
            (2): Conv2d(192, 192, kernel_size=(3, 3), stride=(1, 1), padding=(1, 1))
          )
        )
        (2): LEB(
          (body): Sequential(
            (0): Conv2d(192, 192, kernel_size=(3, 3), stride=(1, 1), padding=(1, 1))
            (1): ReLU(inplace=True)
            (2): Conv2d(192, 192, kernel_size=(3, 3), stride=(1, 1), padding=(1, 1))
          )
        )
        (3): LEB(
          (body): Sequential(
            (0): Conv2d(192, 192, kernel_size=(3, 3), stride=(1, 1), padding=(1, 1))
            (1): ReLU(inplace=True)
            (2): Conv2d(192, 192, kernel_size=(3, 3), stride=(1, 1), padding=(1, 1))
          )
        )
        (4): HSPA(
          (conv_match1): BasicBlock(
            (0): Conv2d(192, 96, kernel_size=(1, 1), stride=(1, 1))
            (1): PReLU(num_parameters=1)
          )
          (conv_match2): BasicBlock(
            (0): Conv2d(192, 96, kernel_size=(1, 1), stride=(1, 1))
            (1): PReLU(num_parameters=1)
          )
          (conv_assembly): BasicBlock(
            (0): Conv2d(192, 192, kernel_size=(1, 1), stride=(1, 1))
            (1): PReLU(num_parameters=1)
          )
          (ST): SoftThresholdingOperation()
        )
        (5): Conv2d(192, 192, kernel_size=(3, 3), stride=(1, 1), padding=(1, 1))
      )
    )
    (1): HSPAM(
      (body): Sequential(
        (0): LEB(
          (body): Sequential(
            (0): Conv2d(192, 192, kernel_size=(3, 3), stride=(1, 1), padding=(1, 1))
            (1): ReLU(inplace=True)
            (2): Conv2d(192, 192, kernel_size=(3, 3), stride=(1, 1), padding=(1, 1))
          )
        )
        (1): LEB(
          (body): Sequential(
            (0): Conv2d(192, 192, kernel_size=(3, 3), stride=(1, 1), padding=(1, 1))
            (1): ReLU(inplace=True)
            (2): Conv2d(192, 192, kernel_size=(3, 3), stride=(1, 1), padding=(1, 1))
          )
        )
        (2): LEB(
          (body): Sequential(
            (0): Conv2d(192, 192, kernel_size=(3, 3), stride=(1, 1), padding=(1, 1))
            (1): ReLU(inplace=True)
            (2): Conv2d(192, 192, kernel_size=(3, 3), stride=(1, 1), padding=(1, 1))
          )
        )
        (3): LEB(
          (body): Sequential(
            (0): Conv2d(192, 192, kernel_size=(3, 3), stride=(1, 1), padding=(1, 1))
            (1): ReLU(inplace=True)
            (2): Conv2d(192, 192, kernel_size=(3, 3), stride=(1, 1), padding=(1, 1))
          )
        )
        (4): HSPA(
          (conv_match1): BasicBlock(
            (0): Conv2d(192, 96, kernel_size=(1, 1), stride=(1, 1))
            (1): PReLU(num_parameters=1)
          )
          (conv_match2): BasicBlock(
            (0): Conv2d(192, 96, kernel_size=(1, 1), stride=(1, 1))
            (1): PReLU(num_parameters=1)
          )
          (conv_assembly): BasicBlock(
            (0): Conv2d(192, 192, kernel_size=(1, 1), stride=(1, 1))
            (1): PReLU(num_parameters=1)
          )
          (ST): SoftThresholdingOperation()
        )
        (5): Conv2d(192, 192, kernel_size=(3, 3), stride=(1, 1), padding=(1, 1))
      )
    )
    (2): HSPAM(
      (body): Sequential(
        (0): LEB(
          (body): Sequential(
            (0): Conv2d(192, 192, kernel_size=(3, 3), stride=(1, 1), padding=(1, 1))
            (1): ReLU(inplace=True)
            (2): Conv2d(192, 192, kernel_size=(3, 3), stride=(1, 1), padding=(1, 1))
          )
        )
        (1): LEB(
          (body): Sequential(
            (0): Conv2d(192, 192, kernel_size=(3, 3), stride=(1, 1), padding=(1, 1))
            (1): ReLU(inplace=True)
            (2): Conv2d(192, 192, kernel_size=(3, 3), stride=(1, 1), padding=(1, 1))
          )
        )
        (2): LEB(
          (body): Sequential(
            (0): Conv2d(192, 192, kernel_size=(3, 3), stride=(1, 1), padding=(1, 1))
            (1): ReLU(inplace=True)
            (2): Conv2d(192, 192, kernel_size=(3, 3), stride=(1, 1), padding=(1, 1))
          )
        )
        (3): LEB(
          (body): Sequential(
            (0): Conv2d(192, 192, kernel_size=(3, 3), stride=(1, 1), padding=(1, 1))
            (1): ReLU(inplace=True)
            (2): Conv2d(192, 192, kernel_size=(3, 3), stride=(1, 1), padding=(1, 1))
          )
        )
        (4): HSPA(
          (conv_match1): BasicBlock(
            (0): Conv2d(192, 96, kernel_size=(1, 1), stride=(1, 1))
            (1): PReLU(num_parameters=1)
          )
          (conv_match2): BasicBlock(
            (0): Conv2d(192, 96, kernel_size=(1, 1), stride=(1, 1))
            (1): PReLU(num_parameters=1)
          )
          (conv_assembly): BasicBlock(
            (0): Conv2d(192, 192, kernel_size=(1, 1), stride=(1, 1))
            (1): PReLU(num_parameters=1)
          )
          (ST): SoftThresholdingOperation()
        )
        (5): Conv2d(192, 192, kernel_size=(3, 3), stride=(1, 1), padding=(1, 1))
      )
    )
    (3): HSPAM(
      (body): Sequential(
        (0): LEB(
          (body): Sequential(
            (0): Conv2d(192, 192, kernel_size=(3, 3), stride=(1, 1), padding=(1, 1))
            (1): ReLU(inplace=True)
            (2): Conv2d(192, 192, kernel_size=(3, 3), stride=(1, 1), padding=(1, 1))
          )
        )
        (1): LEB(
          (body): Sequential(
            (0): Conv2d(192, 192, kernel_size=(3, 3), stride=(1, 1), padding=(1, 1))
            (1): ReLU(inplace=True)
            (2): Conv2d(192, 192, kernel_size=(3, 3), stride=(1, 1), padding=(1, 1))
          )
        )
        (2): LEB(
          (body): Sequential(
            (0): Conv2d(192, 192, kernel_size=(3, 3), stride=(1, 1), padding=(1, 1))
            (1): ReLU(inplace=True)
            (2): Conv2d(192, 192, kernel_size=(3, 3), stride=(1, 1), padding=(1, 1))
          )
        )
        (3): LEB(
          (body): Sequential(
            (0): Conv2d(192, 192, kernel_size=(3, 3), stride=(1, 1), padding=(1, 1))
            (1): ReLU(inplace=True)
            (2): Conv2d(192, 192, kernel_size=(3, 3), stride=(1, 1), padding=(1, 1))
          )
        )
        (4): HSPA(
          (conv_match1): BasicBlock(
            (0): Conv2d(192, 96, kernel_size=(1, 1), stride=(1, 1))
            (1): PReLU(num_parameters=1)
          )
          (conv_match2): BasicBlock(
            (0): Conv2d(192, 96, kernel_size=(1, 1), stride=(1, 1))
            (1): PReLU(num_parameters=1)
          )
          (conv_assembly): BasicBlock(
            (0): Conv2d(192, 192, kernel_size=(1, 1), stride=(1, 1))
            (1): PReLU(num_parameters=1)
          )
          (ST): SoftThresholdingOperation()
        )
        (5): Conv2d(192, 192, kernel_size=(3, 3), stride=(1, 1), padding=(1, 1))
      )
    )
    (4): HSPAM(
      (body): Sequential(
        (0): LEB(
          (body): Sequential(
            (0): Conv2d(192, 192, kernel_size=(3, 3), stride=(1, 1), padding=(1, 1))
            (1): ReLU(inplace=True)
            (2): Conv2d(192, 192, kernel_size=(3, 3), stride=(1, 1), padding=(1, 1))
          )
        )
        (1): LEB(
          (body): Sequential(
            (0): Conv2d(192, 192, kernel_size=(3, 3), stride=(1, 1), padding=(1, 1))
            (1): ReLU(inplace=True)
            (2): Conv2d(192, 192, kernel_size=(3, 3), stride=(1, 1), padding=(1, 1))
          )
        )
        (2): LEB(
          (body): Sequential(
            (0): Conv2d(192, 192, kernel_size=(3, 3), stride=(1, 1), padding=(1, 1))
            (1): ReLU(inplace=True)
            (2): Conv2d(192, 192, kernel_size=(3, 3), stride=(1, 1), padding=(1, 1))
          )
        )
        (3): LEB(
          (body): Sequential(
            (0): Conv2d(192, 192, kernel_size=(3, 3), stride=(1, 1), padding=(1, 1))
            (1): ReLU(inplace=True)
            (2): Conv2d(192, 192, kernel_size=(3, 3), stride=(1, 1), padding=(1, 1))
          )
        )
        (4): HSPA(
          (conv_match1): BasicBlock(
            (0): Conv2d(192, 96, kernel_size=(1, 1), stride=(1, 1))
            (1): PReLU(num_parameters=1)
          )
          (conv_match2): BasicBlock(
            (0): Conv2d(192, 96, kernel_size=(1, 1), stride=(1, 1))
            (1): PReLU(num_parameters=1)
          )
          (conv_assembly): BasicBlock(
            (0): Conv2d(192, 192, kernel_size=(1, 1), stride=(1, 1))
            (1): PReLU(num_parameters=1)
          )
          (ST): SoftThresholdingOperation()
        )
        (5): Conv2d(192, 192, kernel_size=(3, 3), stride=(1, 1), padding=(1, 1))
      )
    )
    (5): HSPAM(
      (body): Sequential(
        (0): LEB(
          (body): Sequential(
            (0): Conv2d(192, 192, kernel_size=(3, 3), stride=(1, 1), padding=(1, 1))
            (1): ReLU(inplace=True)
            (2): Conv2d(192, 192, kernel_size=(3, 3), stride=(1, 1), padding=(1, 1))
          )
        )
        (1): LEB(
          (body): Sequential(
            (0): Conv2d(192, 192, kernel_size=(3, 3), stride=(1, 1), padding=(1, 1))
            (1): ReLU(inplace=True)
            (2): Conv2d(192, 192, kernel_size=(3, 3), stride=(1, 1), padding=(1, 1))
          )
        )
        (2): LEB(
          (body): Sequential(
            (0): Conv2d(192, 192, kernel_size=(3, 3), stride=(1, 1), padding=(1, 1))
            (1): ReLU(inplace=True)
            (2): Conv2d(192, 192, kernel_size=(3, 3), stride=(1, 1), padding=(1, 1))
          )
        )
        (3): LEB(
          (body): Sequential(
            (0): Conv2d(192, 192, kernel_size=(3, 3), stride=(1, 1), padding=(1, 1))
            (1): ReLU(inplace=True)
            (2): Conv2d(192, 192, kernel_size=(3, 3), stride=(1, 1), padding=(1, 1))
          )
        )
        (4): HSPA(
          (conv_match1): BasicBlock(
            (0): Conv2d(192, 96, kernel_size=(1, 1), stride=(1, 1))
            (1): PReLU(num_parameters=1)
          )
          (conv_match2): BasicBlock(
            (0): Conv2d(192, 96, kernel_size=(1, 1), stride=(1, 1))
            (1): PReLU(num_parameters=1)
          )
          (conv_assembly): BasicBlock(
            (0): Conv2d(192, 192, kernel_size=(1, 1), stride=(1, 1))
            (1): PReLU(num_parameters=1)
          )
          (ST): SoftThresholdingOperation()
        )
        (5): Conv2d(192, 192, kernel_size=(3, 3), stride=(1, 1), padding=(1, 1))
      )
    )
    (6): HSPAM(
      (body): Sequential(
        (0): LEB(
          (body): Sequential(
            (0): Conv2d(192, 192, kernel_size=(3, 3), stride=(1, 1), padding=(1, 1))
            (1): ReLU(inplace=True)
            (2): Conv2d(192, 192, kernel_size=(3, 3), stride=(1, 1), padding=(1, 1))
          )
        )
        (1): LEB(
          (body): Sequential(
            (0): Conv2d(192, 192, kernel_size=(3, 3), stride=(1, 1), padding=(1, 1))
            (1): ReLU(inplace=True)
            (2): Conv2d(192, 192, kernel_size=(3, 3), stride=(1, 1), padding=(1, 1))
          )
        )
        (2): LEB(
          (body): Sequential(
            (0): Conv2d(192, 192, kernel_size=(3, 3), stride=(1, 1), padding=(1, 1))
            (1): ReLU(inplace=True)
            (2): Conv2d(192, 192, kernel_size=(3, 3), stride=(1, 1), padding=(1, 1))
          )
        )
        (3): LEB(
          (body): Sequential(
            (0): Conv2d(192, 192, kernel_size=(3, 3), stride=(1, 1), padding=(1, 1))
            (1): ReLU(inplace=True)
            (2): Conv2d(192, 192, kernel_size=(3, 3), stride=(1, 1), padding=(1, 1))
          )
        )
        (4): HSPA(
          (conv_match1): BasicBlock(
            (0): Conv2d(192, 96, kernel_size=(1, 1), stride=(1, 1))
            (1): PReLU(num_parameters=1)
          )
          (conv_match2): BasicBlock(
            (0): Conv2d(192, 96, kernel_size=(1, 1), stride=(1, 1))
            (1): PReLU(num_parameters=1)
          )
          (conv_assembly): BasicBlock(
            (0): Conv2d(192, 192, kernel_size=(1, 1), stride=(1, 1))
            (1): PReLU(num_parameters=1)
          )
          (ST): SoftThresholdingOperation()
        )
        (5): Conv2d(192, 192, kernel_size=(3, 3), stride=(1, 1), padding=(1, 1))
      )
    )
    (7): HSPAM(
      (body): Sequential(
        (0): LEB(
          (body): Sequential(
            (0): Conv2d(192, 192, kernel_size=(3, 3), stride=(1, 1), padding=(1, 1))
            (1): ReLU(inplace=True)
            (2): Conv2d(192, 192, kernel_size=(3, 3), stride=(1, 1), padding=(1, 1))
          )
        )
        (1): LEB(
          (body): Sequential(
            (0): Conv2d(192, 192, kernel_size=(3, 3), stride=(1, 1), padding=(1, 1))
            (1): ReLU(inplace=True)
            (2): Conv2d(192, 192, kernel_size=(3, 3), stride=(1, 1), padding=(1, 1))
          )
        )
        (2): LEB(
          (body): Sequential(
            (0): Conv2d(192, 192, kernel_size=(3, 3), stride=(1, 1), padding=(1, 1))
            (1): ReLU(inplace=True)
            (2): Conv2d(192, 192, kernel_size=(3, 3), stride=(1, 1), padding=(1, 1))
          )
        )
        (3): LEB(
          (body): Sequential(
            (0): Conv2d(192, 192, kernel_size=(3, 3), stride=(1, 1), padding=(1, 1))
            (1): ReLU(inplace=True)
            (2): Conv2d(192, 192, kernel_size=(3, 3), stride=(1, 1), padding=(1, 1))
          )
        )
        (4): HSPA(
          (conv_match1): BasicBlock(
            (0): Conv2d(192, 96, kernel_size=(1, 1), stride=(1, 1))
            (1): PReLU(num_parameters=1)
          )
          (conv_match2): BasicBlock(
            (0): Conv2d(192, 96, kernel_size=(1, 1), stride=(1, 1))
            (1): PReLU(num_parameters=1)
          )
          (conv_assembly): BasicBlock(
            (0): Conv2d(192, 192, kernel_size=(1, 1), stride=(1, 1))
            (1): PReLU(num_parameters=1)
          )
          (ST): SoftThresholdingOperation()
        )
        (5): Conv2d(192, 192, kernel_size=(3, 3), stride=(1, 1), padding=(1, 1))
      )
    )
    (8): HSPAM(
      (body): Sequential(
        (0): LEB(
          (body): Sequential(
            (0): Conv2d(192, 192, kernel_size=(3, 3), stride=(1, 1), padding=(1, 1))
            (1): ReLU(inplace=True)
            (2): Conv2d(192, 192, kernel_size=(3, 3), stride=(1, 1), padding=(1, 1))
          )
        )
        (1): LEB(
          (body): Sequential(
            (0): Conv2d(192, 192, kernel_size=(3, 3), stride=(1, 1), padding=(1, 1))
            (1): ReLU(inplace=True)
            (2): Conv2d(192, 192, kernel_size=(3, 3), stride=(1, 1), padding=(1, 1))
          )
        )
        (2): LEB(
          (body): Sequential(
            (0): Conv2d(192, 192, kernel_size=(3, 3), stride=(1, 1), padding=(1, 1))
            (1): ReLU(inplace=True)
            (2): Conv2d(192, 192, kernel_size=(3, 3), stride=(1, 1), padding=(1, 1))
          )
        )
        (3): LEB(
          (body): Sequential(
            (0): Conv2d(192, 192, kernel_size=(3, 3), stride=(1, 1), padding=(1, 1))
            (1): ReLU(inplace=True)
            (2): Conv2d(192, 192, kernel_size=(3, 3), stride=(1, 1), padding=(1, 1))
          )
        )
        (4): HSPA(
          (conv_match1): BasicBlock(
            (0): Conv2d(192, 96, kernel_size=(1, 1), stride=(1, 1))
            (1): PReLU(num_parameters=1)
          )
          (conv_match2): BasicBlock(
            (0): Conv2d(192, 96, kernel_size=(1, 1), stride=(1, 1))
            (1): PReLU(num_parameters=1)
          )
          (conv_assembly): BasicBlock(
            (0): Conv2d(192, 192, kernel_size=(1, 1), stride=(1, 1))
            (1): PReLU(num_parameters=1)
          )
          (ST): SoftThresholdingOperation()
        )
        (5): Conv2d(192, 192, kernel_size=(3, 3), stride=(1, 1), padding=(1, 1))
      )
    )
    (9): HSPAM(
      (body): Sequential(
        (0): LEB(
          (body): Sequential(
            (0): Conv2d(192, 192, kernel_size=(3, 3), stride=(1, 1), padding=(1, 1))
            (1): ReLU(inplace=True)
            (2): Conv2d(192, 192, kernel_size=(3, 3), stride=(1, 1), padding=(1, 1))
          )
        )
        (1): LEB(
          (body): Sequential(
            (0): Conv2d(192, 192, kernel_size=(3, 3), stride=(1, 1), padding=(1, 1))
            (1): ReLU(inplace=True)
            (2): Conv2d(192, 192, kernel_size=(3, 3), stride=(1, 1), padding=(1, 1))
          )
        )
        (2): LEB(
          (body): Sequential(
            (0): Conv2d(192, 192, kernel_size=(3, 3), stride=(1, 1), padding=(1, 1))
            (1): ReLU(inplace=True)
            (2): Conv2d(192, 192, kernel_size=(3, 3), stride=(1, 1), padding=(1, 1))
          )
        )
        (3): LEB(
          (body): Sequential(
            (0): Conv2d(192, 192, kernel_size=(3, 3), stride=(1, 1), padding=(1, 1))
            (1): ReLU(inplace=True)
            (2): Conv2d(192, 192, kernel_size=(3, 3), stride=(1, 1), padding=(1, 1))
          )
        )
        (4): HSPA(
          (conv_match1): BasicBlock(
            (0): Conv2d(192, 96, kernel_size=(1, 1), stride=(1, 1))
            (1): PReLU(num_parameters=1)
          )
          (conv_match2): BasicBlock(
            (0): Conv2d(192, 96, kernel_size=(1, 1), stride=(1, 1))
            (1): PReLU(num_parameters=1)
          )
          (conv_assembly): BasicBlock(
            (0): Conv2d(192, 192, kernel_size=(1, 1), stride=(1, 1))
            (1): PReLU(num_parameters=1)
          )
          (ST): SoftThresholdingOperation()
        )
        (5): Conv2d(192, 192, kernel_size=(3, 3), stride=(1, 1), padding=(1, 1))
      )
    )
    (10): Conv2d(192, 192, kernel_size=(3, 3), stride=(1, 1), padding=(1, 1))
  )
  (tail): Sequential(
    (0): Upsampler(
      (0): Conv2d(192, 768, kernel_size=(3, 3), stride=(1, 1), padding=(1, 1))
      (1): PixelShuffle(upscale_factor=2)
      (2): Conv2d(192, 768, kernel_size=(3, 3), stride=(1, 1), padding=(1, 1))
      (3): PixelShuffle(upscale_factor=2)
    )
    (1): Conv2d(192, 3, kernel_size=(3, 3), stride=(1, 1), padding=(1, 1))
  )
)

Evaluation:
HSPAN(
  (sub_mean): MeanShift(3, 3, kernel_size=(1, 1), stride=(1, 1))
  (add_mean): MeanShift(3, 3, kernel_size=(1, 1), stride=(1, 1))
  (head): Sequential(
    (0): Conv2d(3, 192, kernel_size=(3, 3), stride=(1, 1), padding=(1, 1))
  )
  (body): Sequential(
    (0): HSPAM(
      (body): Sequential(
        (0): LEB(
          (body): Sequential(
            (0): Conv2d(192, 192, kernel_size=(3, 3), stride=(1, 1), padding=(1, 1))
            (1): ReLU(inplace=True)
            (2): Conv2d(192, 192, kernel_size=(3, 3), stride=(1, 1), padding=(1, 1))
          )
        )
        (1): LEB(
          (body): Sequential(
            (0): Conv2d(192, 192, kernel_size=(3, 3), stride=(1, 1), padding=(1, 1))
            (1): ReLU(inplace=True)
            (2): Conv2d(192, 192, kernel_size=(3, 3), stride=(1, 1), padding=(1, 1))
          )
        )
        (2): LEB(
          (body): Sequential(
            (0): Conv2d(192, 192, kernel_size=(3, 3), stride=(1, 1), padding=(1, 1))
            (1): ReLU(inplace=True)
            (2): Conv2d(192, 192, kernel_size=(3, 3), stride=(1, 1), padding=(1, 1))
          )
        )
        (3): LEB(
          (body): Sequential(
            (0): Conv2d(192, 192, kernel_size=(3, 3), stride=(1, 1), padding=(1, 1))
            (1): ReLU(inplace=True)
            (2): Conv2d(192, 192, kernel_size=(3, 3), stride=(1, 1), padding=(1, 1))
          )
        )
        (4): HSPA(
          (conv_match1): BasicBlock(
            (0): Conv2d(192, 96, kernel_size=(1, 1), stride=(1, 1))
            (1): PReLU(num_parameters=1)
          )
          (conv_match2): BasicBlock(
            (0): Conv2d(192, 96, kernel_size=(1, 1), stride=(1, 1))
            (1): PReLU(num_parameters=1)
          )
          (conv_assembly): BasicBlock(
            (0): Conv2d(192, 192, kernel_size=(1, 1), stride=(1, 1))
            (1): PReLU(num_parameters=1)
          )
          (ST): SoftThresholdingOperation()
        )
        (5): Conv2d(192, 192, kernel_size=(3, 3), stride=(1, 1), padding=(1, 1))
      )
    )
    (1): HSPAM(
      (body): Sequential(
        (0): LEB(
          (body): Sequential(
            (0): Conv2d(192, 192, kernel_size=(3, 3), stride=(1, 1), padding=(1, 1))
            (1): ReLU(inplace=True)
            (2): Conv2d(192, 192, kernel_size=(3, 3), stride=(1, 1), padding=(1, 1))
          )
        )
        (1): LEB(
          (body): Sequential(
            (0): Conv2d(192, 192, kernel_size=(3, 3), stride=(1, 1), padding=(1, 1))
            (1): ReLU(inplace=True)
            (2): Conv2d(192, 192, kernel_size=(3, 3), stride=(1, 1), padding=(1, 1))
          )
        )
        (2): LEB(
          (body): Sequential(
            (0): Conv2d(192, 192, kernel_size=(3, 3), stride=(1, 1), padding=(1, 1))
            (1): ReLU(inplace=True)
            (2): Conv2d(192, 192, kernel_size=(3, 3), stride=(1, 1), padding=(1, 1))
          )
        )
        (3): LEB(
          (body): Sequential(
            (0): Conv2d(192, 192, kernel_size=(3, 3), stride=(1, 1), padding=(1, 1))
            (1): ReLU(inplace=True)
            (2): Conv2d(192, 192, kernel_size=(3, 3), stride=(1, 1), padding=(1, 1))
          )
        )
        (4): HSPA(
          (conv_match1): BasicBlock(
            (0): Conv2d(192, 96, kernel_size=(1, 1), stride=(1, 1))
            (1): PReLU(num_parameters=1)
          )
          (conv_match2): BasicBlock(
            (0): Conv2d(192, 96, kernel_size=(1, 1), stride=(1, 1))
            (1): PReLU(num_parameters=1)
          )
          (conv_assembly): BasicBlock(
            (0): Conv2d(192, 192, kernel_size=(1, 1), stride=(1, 1))
            (1): PReLU(num_parameters=1)
          )
          (ST): SoftThresholdingOperation()
        )
        (5): Conv2d(192, 192, kernel_size=(3, 3), stride=(1, 1), padding=(1, 1))
      )
    )
    (2): HSPAM(
      (body): Sequential(
        (0): LEB(
          (body): Sequential(
            (0): Conv2d(192, 192, kernel_size=(3, 3), stride=(1, 1), padding=(1, 1))
            (1): ReLU(inplace=True)
            (2): Conv2d(192, 192, kernel_size=(3, 3), stride=(1, 1), padding=(1, 1))
          )
        )
        (1): LEB(
          (body): Sequential(
            (0): Conv2d(192, 192, kernel_size=(3, 3), stride=(1, 1), padding=(1, 1))
            (1): ReLU(inplace=True)
            (2): Conv2d(192, 192, kernel_size=(3, 3), stride=(1, 1), padding=(1, 1))
          )
        )
        (2): LEB(
          (body): Sequential(
            (0): Conv2d(192, 192, kernel_size=(3, 3), stride=(1, 1), padding=(1, 1))
            (1): ReLU(inplace=True)
            (2): Conv2d(192, 192, kernel_size=(3, 3), stride=(1, 1), padding=(1, 1))
          )
        )
        (3): LEB(
          (body): Sequential(
            (0): Conv2d(192, 192, kernel_size=(3, 3), stride=(1, 1), padding=(1, 1))
            (1): ReLU(inplace=True)
            (2): Conv2d(192, 192, kernel_size=(3, 3), stride=(1, 1), padding=(1, 1))
          )
        )
        (4): HSPA(
          (conv_match1): BasicBlock(
            (0): Conv2d(192, 96, kernel_size=(1, 1), stride=(1, 1))
            (1): PReLU(num_parameters=1)
          )
          (conv_match2): BasicBlock(
            (0): Conv2d(192, 96, kernel_size=(1, 1), stride=(1, 1))
            (1): PReLU(num_parameters=1)
          )
          (conv_assembly): BasicBlock(
            (0): Conv2d(192, 192, kernel_size=(1, 1), stride=(1, 1))
            (1): PReLU(num_parameters=1)
          )
          (ST): SoftThresholdingOperation()
        )
        (5): Conv2d(192, 192, kernel_size=(3, 3), stride=(1, 1), padding=(1, 1))
      )
    )
    (3): HSPAM(
      (body): Sequential(
        (0): LEB(
          (body): Sequential(
            (0): Conv2d(192, 192, kernel_size=(3, 3), stride=(1, 1), padding=(1, 1))
            (1): ReLU(inplace=True)
            (2): Conv2d(192, 192, kernel_size=(3, 3), stride=(1, 1), padding=(1, 1))
          )
        )
        (1): LEB(
          (body): Sequential(
            (0): Conv2d(192, 192, kernel_size=(3, 3), stride=(1, 1), padding=(1, 1))
            (1): ReLU(inplace=True)
            (2): Conv2d(192, 192, kernel_size=(3, 3), stride=(1, 1), padding=(1, 1))
          )
        )
        (2): LEB(
          (body): Sequential(
            (0): Conv2d(192, 192, kernel_size=(3, 3), stride=(1, 1), padding=(1, 1))
            (1): ReLU(inplace=True)
            (2): Conv2d(192, 192, kernel_size=(3, 3), stride=(1, 1), padding=(1, 1))
          )
        )
        (3): LEB(
          (body): Sequential(
            (0): Conv2d(192, 192, kernel_size=(3, 3), stride=(1, 1), padding=(1, 1))
            (1): ReLU(inplace=True)
            (2): Conv2d(192, 192, kernel_size=(3, 3), stride=(1, 1), padding=(1, 1))
          )
        )
        (4): HSPA(
          (conv_match1): BasicBlock(
            (0): Conv2d(192, 96, kernel_size=(1, 1), stride=(1, 1))
            (1): PReLU(num_parameters=1)
          )
          (conv_match2): BasicBlock(
            (0): Conv2d(192, 96, kernel_size=(1, 1), stride=(1, 1))
            (1): PReLU(num_parameters=1)
          )
          (conv_assembly): BasicBlock(
            (0): Conv2d(192, 192, kernel_size=(1, 1), stride=(1, 1))
            (1): PReLU(num_parameters=1)
          )
          (ST): SoftThresholdingOperation()
        )
        (5): Conv2d(192, 192, kernel_size=(3, 3), stride=(1, 1), padding=(1, 1))
      )
    )
    (4): HSPAM(
      (body): Sequential(
        (0): LEB(
          (body): Sequential(
            (0): Conv2d(192, 192, kernel_size=(3, 3), stride=(1, 1), padding=(1, 1))
            (1): ReLU(inplace=True)
            (2): Conv2d(192, 192, kernel_size=(3, 3), stride=(1, 1), padding=(1, 1))
          )
        )
        (1): LEB(
          (body): Sequential(
            (0): Conv2d(192, 192, kernel_size=(3, 3), stride=(1, 1), padding=(1, 1))
            (1): ReLU(inplace=True)
            (2): Conv2d(192, 192, kernel_size=(3, 3), stride=(1, 1), padding=(1, 1))
          )
        )
        (2): LEB(
          (body): Sequential(
            (0): Conv2d(192, 192, kernel_size=(3, 3), stride=(1, 1), padding=(1, 1))
            (1): ReLU(inplace=True)
            (2): Conv2d(192, 192, kernel_size=(3, 3), stride=(1, 1), padding=(1, 1))
          )
        )
        (3): LEB(
          (body): Sequential(
            (0): Conv2d(192, 192, kernel_size=(3, 3), stride=(1, 1), padding=(1, 1))
            (1): ReLU(inplace=True)
            (2): Conv2d(192, 192, kernel_size=(3, 3), stride=(1, 1), padding=(1, 1))
          )
        )
        (4): HSPA(
          (conv_match1): BasicBlock(
            (0): Conv2d(192, 96, kernel_size=(1, 1), stride=(1, 1))
            (1): PReLU(num_parameters=1)
          )
          (conv_match2): BasicBlock(
            (0): Conv2d(192, 96, kernel_size=(1, 1), stride=(1, 1))
            (1): PReLU(num_parameters=1)
          )
          (conv_assembly): BasicBlock(
            (0): Conv2d(192, 192, kernel_size=(1, 1), stride=(1, 1))
            (1): PReLU(num_parameters=1)
          )
          (ST): SoftThresholdingOperation()
        )
        (5): Conv2d(192, 192, kernel_size=(3, 3), stride=(1, 1), padding=(1, 1))
      )
    )
    (5): HSPAM(
      (body): Sequential(
        (0): LEB(
          (body): Sequential(
            (0): Conv2d(192, 192, kernel_size=(3, 3), stride=(1, 1), padding=(1, 1))
            (1): ReLU(inplace=True)
            (2): Conv2d(192, 192, kernel_size=(3, 3), stride=(1, 1), padding=(1, 1))
          )
        )
        (1): LEB(
          (body): Sequential(
            (0): Conv2d(192, 192, kernel_size=(3, 3), stride=(1, 1), padding=(1, 1))
            (1): ReLU(inplace=True)
            (2): Conv2d(192, 192, kernel_size=(3, 3), stride=(1, 1), padding=(1, 1))
          )
        )
        (2): LEB(
          (body): Sequential(
            (0): Conv2d(192, 192, kernel_size=(3, 3), stride=(1, 1), padding=(1, 1))
            (1): ReLU(inplace=True)
            (2): Conv2d(192, 192, kernel_size=(3, 3), stride=(1, 1), padding=(1, 1))
          )
        )
        (3): LEB(
          (body): Sequential(
            (0): Conv2d(192, 192, kernel_size=(3, 3), stride=(1, 1), padding=(1, 1))
            (1): ReLU(inplace=True)
            (2): Conv2d(192, 192, kernel_size=(3, 3), stride=(1, 1), padding=(1, 1))
          )
        )
        (4): HSPA(
          (conv_match1): BasicBlock(
            (0): Conv2d(192, 96, kernel_size=(1, 1), stride=(1, 1))
            (1): PReLU(num_parameters=1)
          )
          (conv_match2): BasicBlock(
            (0): Conv2d(192, 96, kernel_size=(1, 1), stride=(1, 1))
            (1): PReLU(num_parameters=1)
          )
          (conv_assembly): BasicBlock(
            (0): Conv2d(192, 192, kernel_size=(1, 1), stride=(1, 1))
            (1): PReLU(num_parameters=1)
          )
          (ST): SoftThresholdingOperation()
        )
        (5): Conv2d(192, 192, kernel_size=(3, 3), stride=(1, 1), padding=(1, 1))
      )
    )
    (6): HSPAM(
      (body): Sequential(
        (0): LEB(
          (body): Sequential(
            (0): Conv2d(192, 192, kernel_size=(3, 3), stride=(1, 1), padding=(1, 1))
            (1): ReLU(inplace=True)
            (2): Conv2d(192, 192, kernel_size=(3, 3), stride=(1, 1), padding=(1, 1))
          )
        )
        (1): LEB(
          (body): Sequential(
            (0): Conv2d(192, 192, kernel_size=(3, 3), stride=(1, 1), padding=(1, 1))
            (1): ReLU(inplace=True)
            (2): Conv2d(192, 192, kernel_size=(3, 3), stride=(1, 1), padding=(1, 1))
          )
        )
        (2): LEB(
          (body): Sequential(
            (0): Conv2d(192, 192, kernel_size=(3, 3), stride=(1, 1), padding=(1, 1))
            (1): ReLU(inplace=True)
            (2): Conv2d(192, 192, kernel_size=(3, 3), stride=(1, 1), padding=(1, 1))
          )
        )
        (3): LEB(
          (body): Sequential(
            (0): Conv2d(192, 192, kernel_size=(3, 3), stride=(1, 1), padding=(1, 1))
            (1): ReLU(inplace=True)
            (2): Conv2d(192, 192, kernel_size=(3, 3), stride=(1, 1), padding=(1, 1))
          )
        )
        (4): HSPA(
          (conv_match1): BasicBlock(
            (0): Conv2d(192, 96, kernel_size=(1, 1), stride=(1, 1))
            (1): PReLU(num_parameters=1)
          )
          (conv_match2): BasicBlock(
            (0): Conv2d(192, 96, kernel_size=(1, 1), stride=(1, 1))
            (1): PReLU(num_parameters=1)
          )
          (conv_assembly): BasicBlock(
            (0): Conv2d(192, 192, kernel_size=(1, 1), stride=(1, 1))
            (1): PReLU(num_parameters=1)
          )
          (ST): SoftThresholdingOperation()
        )
        (5): Conv2d(192, 192, kernel_size=(3, 3), stride=(1, 1), padding=(1, 1))
      )
    )
    (7): HSPAM(
      (body): Sequential(
        (0): LEB(
          (body): Sequential(
            (0): Conv2d(192, 192, kernel_size=(3, 3), stride=(1, 1), padding=(1, 1))
            (1): ReLU(inplace=True)
            (2): Conv2d(192, 192, kernel_size=(3, 3), stride=(1, 1), padding=(1, 1))
          )
        )
        (1): LEB(
          (body): Sequential(
            (0): Conv2d(192, 192, kernel_size=(3, 3), stride=(1, 1), padding=(1, 1))
            (1): ReLU(inplace=True)
            (2): Conv2d(192, 192, kernel_size=(3, 3), stride=(1, 1), padding=(1, 1))
          )
        )
        (2): LEB(
          (body): Sequential(
            (0): Conv2d(192, 192, kernel_size=(3, 3), stride=(1, 1), padding=(1, 1))
            (1): ReLU(inplace=True)
            (2): Conv2d(192, 192, kernel_size=(3, 3), stride=(1, 1), padding=(1, 1))
          )
        )
        (3): LEB(
          (body): Sequential(
            (0): Conv2d(192, 192, kernel_size=(3, 3), stride=(1, 1), padding=(1, 1))
            (1): ReLU(inplace=True)
            (2): Conv2d(192, 192, kernel_size=(3, 3), stride=(1, 1), padding=(1, 1))
          )
        )
        (4): HSPA(
          (conv_match1): BasicBlock(
            (0): Conv2d(192, 96, kernel_size=(1, 1), stride=(1, 1))
            (1): PReLU(num_parameters=1)
          )
          (conv_match2): BasicBlock(
            (0): Conv2d(192, 96, kernel_size=(1, 1), stride=(1, 1))
            (1): PReLU(num_parameters=1)
          )
          (conv_assembly): BasicBlock(
            (0): Conv2d(192, 192, kernel_size=(1, 1), stride=(1, 1))
            (1): PReLU(num_parameters=1)
          )
          (ST): SoftThresholdingOperation()
        )
        (5): Conv2d(192, 192, kernel_size=(3, 3), stride=(1, 1), padding=(1, 1))
      )
    )
    (8): HSPAM(
      (body): Sequential(
        (0): LEB(
          (body): Sequential(
            (0): Conv2d(192, 192, kernel_size=(3, 3), stride=(1, 1), padding=(1, 1))
            (1): ReLU(inplace=True)
            (2): Conv2d(192, 192, kernel_size=(3, 3), stride=(1, 1), padding=(1, 1))
          )
        )
        (1): LEB(
          (body): Sequential(
            (0): Conv2d(192, 192, kernel_size=(3, 3), stride=(1, 1), padding=(1, 1))
            (1): ReLU(inplace=True)
            (2): Conv2d(192, 192, kernel_size=(3, 3), stride=(1, 1), padding=(1, 1))
          )
        )
        (2): LEB(
          (body): Sequential(
            (0): Conv2d(192, 192, kernel_size=(3, 3), stride=(1, 1), padding=(1, 1))
            (1): ReLU(inplace=True)
            (2): Conv2d(192, 192, kernel_size=(3, 3), stride=(1, 1), padding=(1, 1))
          )
        )
        (3): LEB(
          (body): Sequential(
            (0): Conv2d(192, 192, kernel_size=(3, 3), stride=(1, 1), padding=(1, 1))
            (1): ReLU(inplace=True)
            (2): Conv2d(192, 192, kernel_size=(3, 3), stride=(1, 1), padding=(1, 1))
          )
        )
        (4): HSPA(
          (conv_match1): BasicBlock(
            (0): Conv2d(192, 96, kernel_size=(1, 1), stride=(1, 1))
            (1): PReLU(num_parameters=1)
          )
          (conv_match2): BasicBlock(
            (0): Conv2d(192, 96, kernel_size=(1, 1), stride=(1, 1))
            (1): PReLU(num_parameters=1)
          )
          (conv_assembly): BasicBlock(
            (0): Conv2d(192, 192, kernel_size=(1, 1), stride=(1, 1))
            (1): PReLU(num_parameters=1)
          )
          (ST): SoftThresholdingOperation()
        )
        (5): Conv2d(192, 192, kernel_size=(3, 3), stride=(1, 1), padding=(1, 1))
      )
    )
    (9): HSPAM(
      (body): Sequential(
        (0): LEB(
          (body): Sequential(
            (0): Conv2d(192, 192, kernel_size=(3, 3), stride=(1, 1), padding=(1, 1))
            (1): ReLU(inplace=True)
            (2): Conv2d(192, 192, kernel_size=(3, 3), stride=(1, 1), padding=(1, 1))
          )
        )
        (1): LEB(
          (body): Sequential(
            (0): Conv2d(192, 192, kernel_size=(3, 3), stride=(1, 1), padding=(1, 1))
            (1): ReLU(inplace=True)
            (2): Conv2d(192, 192, kernel_size=(3, 3), stride=(1, 1), padding=(1, 1))
          )
        )
        (2): LEB(
          (body): Sequential(
            (0): Conv2d(192, 192, kernel_size=(3, 3), stride=(1, 1), padding=(1, 1))
            (1): ReLU(inplace=True)
            (2): Conv2d(192, 192, kernel_size=(3, 3), stride=(1, 1), padding=(1, 1))
          )
        )
        (3): LEB(
          (body): Sequential(
            (0): Conv2d(192, 192, kernel_size=(3, 3), stride=(1, 1), padding=(1, 1))
            (1): ReLU(inplace=True)
            (2): Conv2d(192, 192, kernel_size=(3, 3), stride=(1, 1), padding=(1, 1))
          )
        )
        (4): HSPA(
          (conv_match1): BasicBlock(
            (0): Conv2d(192, 96, kernel_size=(1, 1), stride=(1, 1))
            (1): PReLU(num_parameters=1)
          )
          (conv_match2): BasicBlock(
            (0): Conv2d(192, 96, kernel_size=(1, 1), stride=(1, 1))
            (1): PReLU(num_parameters=1)
          )
          (conv_assembly): BasicBlock(
            (0): Conv2d(192, 192, kernel_size=(1, 1), stride=(1, 1))
            (1): PReLU(num_parameters=1)
          )
          (ST): SoftThresholdingOperation()
        )
        (5): Conv2d(192, 192, kernel_size=(3, 3), stride=(1, 1), padding=(1, 1))
      )
    )
    (10): Conv2d(192, 192, kernel_size=(3, 3), stride=(1, 1), padding=(1, 1))
  )
  (tail): Sequential(
    (0): Upsampler(
      (0): Conv2d(192, 768, kernel_size=(3, 3), stride=(1, 1), padding=(1, 1))
      (1): PixelShuffle(upscale_factor=2)
      (2): Conv2d(192, 768, kernel_size=(3, 3), stride=(1, 1), padding=(1, 1))
      (3): PixelShuffle(upscale_factor=2)
    )
    (1): Conv2d(192, 3, kernel_size=(3, 3), stride=(1, 1), padding=(1, 1))
  )
)

Evaluation:
HSPAN(
  (sub_mean): MeanShift(3, 3, kernel_size=(1, 1), stride=(1, 1))
  (add_mean): MeanShift(3, 3, kernel_size=(1, 1), stride=(1, 1))
  (head): Sequential(
    (0): Conv2d(3, 192, kernel_size=(3, 3), stride=(1, 1), padding=(1, 1))
  )
  (body): Sequential(
    (0): HSPAM(
      (body): Sequential(
        (0): LEB(
          (body): Sequential(
            (0): Conv2d(192, 192, kernel_size=(3, 3), stride=(1, 1), padding=(1, 1))
            (1): ReLU(inplace=True)
            (2): Conv2d(192, 192, kernel_size=(3, 3), stride=(1, 1), padding=(1, 1))
          )
        )
        (1): LEB(
          (body): Sequential(
            (0): Conv2d(192, 192, kernel_size=(3, 3), stride=(1, 1), padding=(1, 1))
            (1): ReLU(inplace=True)
            (2): Conv2d(192, 192, kernel_size=(3, 3), stride=(1, 1), padding=(1, 1))
          )
        )
        (2): LEB(
          (body): Sequential(
            (0): Conv2d(192, 192, kernel_size=(3, 3), stride=(1, 1), padding=(1, 1))
            (1): ReLU(inplace=True)
            (2): Conv2d(192, 192, kernel_size=(3, 3), stride=(1, 1), padding=(1, 1))
          )
        )
        (3): LEB(
          (body): Sequential(
            (0): Conv2d(192, 192, kernel_size=(3, 3), stride=(1, 1), padding=(1, 1))
            (1): ReLU(inplace=True)
            (2): Conv2d(192, 192, kernel_size=(3, 3), stride=(1, 1), padding=(1, 1))
          )
        )
        (4): HSPA(
          (conv_match1): BasicBlock(
            (0): Conv2d(192, 96, kernel_size=(1, 1), stride=(1, 1))
            (1): PReLU(num_parameters=1)
          )
          (conv_match2): BasicBlock(
            (0): Conv2d(192, 96, kernel_size=(1, 1), stride=(1, 1))
            (1): PReLU(num_parameters=1)
          )
          (conv_assembly): BasicBlock(
            (0): Conv2d(192, 192, kernel_size=(1, 1), stride=(1, 1))
            (1): PReLU(num_parameters=1)
          )
          (ST): SoftThresholdingOperation()
        )
        (5): Conv2d(192, 192, kernel_size=(3, 3), stride=(1, 1), padding=(1, 1))
      )
    )
    (1): HSPAM(
      (body): Sequential(
        (0): LEB(
          (body): Sequential(
            (0): Conv2d(192, 192, kernel_size=(3, 3), stride=(1, 1), padding=(1, 1))
            (1): ReLU(inplace=True)
            (2): Conv2d(192, 192, kernel_size=(3, 3), stride=(1, 1), padding=(1, 1))
          )
        )
        (1): LEB(
          (body): Sequential(
            (0): Conv2d(192, 192, kernel_size=(3, 3), stride=(1, 1), padding=(1, 1))
            (1): ReLU(inplace=True)
            (2): Conv2d(192, 192, kernel_size=(3, 3), stride=(1, 1), padding=(1, 1))
          )
        )
        (2): LEB(
          (body): Sequential(
            (0): Conv2d(192, 192, kernel_size=(3, 3), stride=(1, 1), padding=(1, 1))
            (1): ReLU(inplace=True)
            (2): Conv2d(192, 192, kernel_size=(3, 3), stride=(1, 1), padding=(1, 1))
          )
        )
        (3): LEB(
          (body): Sequential(
            (0): Conv2d(192, 192, kernel_size=(3, 3), stride=(1, 1), padding=(1, 1))
            (1): ReLU(inplace=True)
            (2): Conv2d(192, 192, kernel_size=(3, 3), stride=(1, 1), padding=(1, 1))
          )
        )
        (4): HSPA(
          (conv_match1): BasicBlock(
            (0): Conv2d(192, 96, kernel_size=(1, 1), stride=(1, 1))
            (1): PReLU(num_parameters=1)
          )
          (conv_match2): BasicBlock(
            (0): Conv2d(192, 96, kernel_size=(1, 1), stride=(1, 1))
            (1): PReLU(num_parameters=1)
          )
          (conv_assembly): BasicBlock(
            (0): Conv2d(192, 192, kernel_size=(1, 1), stride=(1, 1))
            (1): PReLU(num_parameters=1)
          )
          (ST): SoftThresholdingOperation()
        )
        (5): Conv2d(192, 192, kernel_size=(3, 3), stride=(1, 1), padding=(1, 1))
      )
    )
    (2): HSPAM(
      (body): Sequential(
        (0): LEB(
          (body): Sequential(
            (0): Conv2d(192, 192, kernel_size=(3, 3), stride=(1, 1), padding=(1, 1))
            (1): ReLU(inplace=True)
            (2): Conv2d(192, 192, kernel_size=(3, 3), stride=(1, 1), padding=(1, 1))
          )
        )
        (1): LEB(
          (body): Sequential(
            (0): Conv2d(192, 192, kernel_size=(3, 3), stride=(1, 1), padding=(1, 1))
            (1): ReLU(inplace=True)
            (2): Conv2d(192, 192, kernel_size=(3, 3), stride=(1, 1), padding=(1, 1))
          )
        )
        (2): LEB(
          (body): Sequential(
            (0): Conv2d(192, 192, kernel_size=(3, 3), stride=(1, 1), padding=(1, 1))
            (1): ReLU(inplace=True)
            (2): Conv2d(192, 192, kernel_size=(3, 3), stride=(1, 1), padding=(1, 1))
          )
        )
        (3): LEB(
          (body): Sequential(
            (0): Conv2d(192, 192, kernel_size=(3, 3), stride=(1, 1), padding=(1, 1))
            (1): ReLU(inplace=True)
            (2): Conv2d(192, 192, kernel_size=(3, 3), stride=(1, 1), padding=(1, 1))
          )
        )
        (4): HSPA(
          (conv_match1): BasicBlock(
            (0): Conv2d(192, 96, kernel_size=(1, 1), stride=(1, 1))
            (1): PReLU(num_parameters=1)
          )
          (conv_match2): BasicBlock(
            (0): Conv2d(192, 96, kernel_size=(1, 1), stride=(1, 1))
            (1): PReLU(num_parameters=1)
          )
          (conv_assembly): BasicBlock(
            (0): Conv2d(192, 192, kernel_size=(1, 1), stride=(1, 1))
            (1): PReLU(num_parameters=1)
          )
          (ST): SoftThresholdingOperation()
        )
        (5): Conv2d(192, 192, kernel_size=(3, 3), stride=(1, 1), padding=(1, 1))
      )
    )
    (3): HSPAM(
      (body): Sequential(
        (0): LEB(
          (body): Sequential(
            (0): Conv2d(192, 192, kernel_size=(3, 3), stride=(1, 1), padding=(1, 1))
            (1): ReLU(inplace=True)
            (2): Conv2d(192, 192, kernel_size=(3, 3), stride=(1, 1), padding=(1, 1))
          )
        )
        (1): LEB(
          (body): Sequential(
            (0): Conv2d(192, 192, kernel_size=(3, 3), stride=(1, 1), padding=(1, 1))
            (1): ReLU(inplace=True)
            (2): Conv2d(192, 192, kernel_size=(3, 3), stride=(1, 1), padding=(1, 1))
          )
        )
        (2): LEB(
          (body): Sequential(
            (0): Conv2d(192, 192, kernel_size=(3, 3), stride=(1, 1), padding=(1, 1))
            (1): ReLU(inplace=True)
            (2): Conv2d(192, 192, kernel_size=(3, 3), stride=(1, 1), padding=(1, 1))
          )
        )
        (3): LEB(
          (body): Sequential(
            (0): Conv2d(192, 192, kernel_size=(3, 3), stride=(1, 1), padding=(1, 1))
            (1): ReLU(inplace=True)
            (2): Conv2d(192, 192, kernel_size=(3, 3), stride=(1, 1), padding=(1, 1))
          )
        )
        (4): HSPA(
          (conv_match1): BasicBlock(
            (0): Conv2d(192, 96, kernel_size=(1, 1), stride=(1, 1))
            (1): PReLU(num_parameters=1)
          )
          (conv_match2): BasicBlock(
            (0): Conv2d(192, 96, kernel_size=(1, 1), stride=(1, 1))
            (1): PReLU(num_parameters=1)
          )
          (conv_assembly): BasicBlock(
            (0): Conv2d(192, 192, kernel_size=(1, 1), stride=(1, 1))
            (1): PReLU(num_parameters=1)
          )
          (ST): SoftThresholdingOperation()
        )
        (5): Conv2d(192, 192, kernel_size=(3, 3), stride=(1, 1), padding=(1, 1))
      )
    )
    (4): HSPAM(
      (body): Sequential(
        (0): LEB(
          (body): Sequential(
            (0): Conv2d(192, 192, kernel_size=(3, 3), stride=(1, 1), padding=(1, 1))
            (1): ReLU(inplace=True)
            (2): Conv2d(192, 192, kernel_size=(3, 3), stride=(1, 1), padding=(1, 1))
          )
        )
        (1): LEB(
          (body): Sequential(
            (0): Conv2d(192, 192, kernel_size=(3, 3), stride=(1, 1), padding=(1, 1))
            (1): ReLU(inplace=True)
            (2): Conv2d(192, 192, kernel_size=(3, 3), stride=(1, 1), padding=(1, 1))
          )
        )
        (2): LEB(
          (body): Sequential(
            (0): Conv2d(192, 192, kernel_size=(3, 3), stride=(1, 1), padding=(1, 1))
            (1): ReLU(inplace=True)
            (2): Conv2d(192, 192, kernel_size=(3, 3), stride=(1, 1), padding=(1, 1))
          )
        )
        (3): LEB(
          (body): Sequential(
            (0): Conv2d(192, 192, kernel_size=(3, 3), stride=(1, 1), padding=(1, 1))
            (1): ReLU(inplace=True)
            (2): Conv2d(192, 192, kernel_size=(3, 3), stride=(1, 1), padding=(1, 1))
          )
        )
        (4): HSPA(
          (conv_match1): BasicBlock(
            (0): Conv2d(192, 96, kernel_size=(1, 1), stride=(1, 1))
            (1): PReLU(num_parameters=1)
          )
          (conv_match2): BasicBlock(
            (0): Conv2d(192, 96, kernel_size=(1, 1), stride=(1, 1))
            (1): PReLU(num_parameters=1)
          )
          (conv_assembly): BasicBlock(
            (0): Conv2d(192, 192, kernel_size=(1, 1), stride=(1, 1))
            (1): PReLU(num_parameters=1)
          )
          (ST): SoftThresholdingOperation()
        )
        (5): Conv2d(192, 192, kernel_size=(3, 3), stride=(1, 1), padding=(1, 1))
      )
    )
    (5): HSPAM(
      (body): Sequential(
        (0): LEB(
          (body): Sequential(
            (0): Conv2d(192, 192, kernel_size=(3, 3), stride=(1, 1), padding=(1, 1))
            (1): ReLU(inplace=True)
            (2): Conv2d(192, 192, kernel_size=(3, 3), stride=(1, 1), padding=(1, 1))
          )
        )
        (1): LEB(
          (body): Sequential(
            (0): Conv2d(192, 192, kernel_size=(3, 3), stride=(1, 1), padding=(1, 1))
            (1): ReLU(inplace=True)
            (2): Conv2d(192, 192, kernel_size=(3, 3), stride=(1, 1), padding=(1, 1))
          )
        )
        (2): LEB(
          (body): Sequential(
            (0): Conv2d(192, 192, kernel_size=(3, 3), stride=(1, 1), padding=(1, 1))
            (1): ReLU(inplace=True)
            (2): Conv2d(192, 192, kernel_size=(3, 3), stride=(1, 1), padding=(1, 1))
          )
        )
        (3): LEB(
          (body): Sequential(
            (0): Conv2d(192, 192, kernel_size=(3, 3), stride=(1, 1), padding=(1, 1))
            (1): ReLU(inplace=True)
            (2): Conv2d(192, 192, kernel_size=(3, 3), stride=(1, 1), padding=(1, 1))
          )
        )
        (4): HSPA(
          (conv_match1): BasicBlock(
            (0): Conv2d(192, 96, kernel_size=(1, 1), stride=(1, 1))
            (1): PReLU(num_parameters=1)
          )
          (conv_match2): BasicBlock(
            (0): Conv2d(192, 96, kernel_size=(1, 1), stride=(1, 1))
            (1): PReLU(num_parameters=1)
          )
          (conv_assembly): BasicBlock(
            (0): Conv2d(192, 192, kernel_size=(1, 1), stride=(1, 1))
            (1): PReLU(num_parameters=1)
          )
          (ST): SoftThresholdingOperation()
        )
        (5): Conv2d(192, 192, kernel_size=(3, 3), stride=(1, 1), padding=(1, 1))
      )
    )
    (6): HSPAM(
      (body): Sequential(
        (0): LEB(
          (body): Sequential(
            (0): Conv2d(192, 192, kernel_size=(3, 3), stride=(1, 1), padding=(1, 1))
            (1): ReLU(inplace=True)
            (2): Conv2d(192, 192, kernel_size=(3, 3), stride=(1, 1), padding=(1, 1))
          )
        )
        (1): LEB(
          (body): Sequential(
            (0): Conv2d(192, 192, kernel_size=(3, 3), stride=(1, 1), padding=(1, 1))
            (1): ReLU(inplace=True)
            (2): Conv2d(192, 192, kernel_size=(3, 3), stride=(1, 1), padding=(1, 1))
          )
        )
        (2): LEB(
          (body): Sequential(
            (0): Conv2d(192, 192, kernel_size=(3, 3), stride=(1, 1), padding=(1, 1))
            (1): ReLU(inplace=True)
            (2): Conv2d(192, 192, kernel_size=(3, 3), stride=(1, 1), padding=(1, 1))
          )
        )
        (3): LEB(
          (body): Sequential(
            (0): Conv2d(192, 192, kernel_size=(3, 3), stride=(1, 1), padding=(1, 1))
            (1): ReLU(inplace=True)
            (2): Conv2d(192, 192, kernel_size=(3, 3), stride=(1, 1), padding=(1, 1))
          )
        )
        (4): HSPA(
          (conv_match1): BasicBlock(
            (0): Conv2d(192, 96, kernel_size=(1, 1), stride=(1, 1))
            (1): PReLU(num_parameters=1)
          )
          (conv_match2): BasicBlock(
            (0): Conv2d(192, 96, kernel_size=(1, 1), stride=(1, 1))
            (1): PReLU(num_parameters=1)
          )
          (conv_assembly): BasicBlock(
            (0): Conv2d(192, 192, kernel_size=(1, 1), stride=(1, 1))
            (1): PReLU(num_parameters=1)
          )
          (ST): SoftThresholdingOperation()
        )
        (5): Conv2d(192, 192, kernel_size=(3, 3), stride=(1, 1), padding=(1, 1))
      )
    )
    (7): HSPAM(
      (body): Sequential(
        (0): LEB(
          (body): Sequential(
            (0): Conv2d(192, 192, kernel_size=(3, 3), stride=(1, 1), padding=(1, 1))
            (1): ReLU(inplace=True)
            (2): Conv2d(192, 192, kernel_size=(3, 3), stride=(1, 1), padding=(1, 1))
          )
        )
        (1): LEB(
          (body): Sequential(
            (0): Conv2d(192, 192, kernel_size=(3, 3), stride=(1, 1), padding=(1, 1))
            (1): ReLU(inplace=True)
            (2): Conv2d(192, 192, kernel_size=(3, 3), stride=(1, 1), padding=(1, 1))
          )
        )
        (2): LEB(
          (body): Sequential(
            (0): Conv2d(192, 192, kernel_size=(3, 3), stride=(1, 1), padding=(1, 1))
            (1): ReLU(inplace=True)
            (2): Conv2d(192, 192, kernel_size=(3, 3), stride=(1, 1), padding=(1, 1))
          )
        )
        (3): LEB(
          (body): Sequential(
            (0): Conv2d(192, 192, kernel_size=(3, 3), stride=(1, 1), padding=(1, 1))
            (1): ReLU(inplace=True)
            (2): Conv2d(192, 192, kernel_size=(3, 3), stride=(1, 1), padding=(1, 1))
          )
        )
        (4): HSPA(
          (conv_match1): BasicBlock(
            (0): Conv2d(192, 96, kernel_size=(1, 1), stride=(1, 1))
            (1): PReLU(num_parameters=1)
          )
          (conv_match2): BasicBlock(
            (0): Conv2d(192, 96, kernel_size=(1, 1), stride=(1, 1))
            (1): PReLU(num_parameters=1)
          )
          (conv_assembly): BasicBlock(
            (0): Conv2d(192, 192, kernel_size=(1, 1), stride=(1, 1))
            (1): PReLU(num_parameters=1)
          )
          (ST): SoftThresholdingOperation()
        )
        (5): Conv2d(192, 192, kernel_size=(3, 3), stride=(1, 1), padding=(1, 1))
      )
    )
    (8): HSPAM(
      (body): Sequential(
        (0): LEB(
          (body): Sequential(
            (0): Conv2d(192, 192, kernel_size=(3, 3), stride=(1, 1), padding=(1, 1))
            (1): ReLU(inplace=True)
            (2): Conv2d(192, 192, kernel_size=(3, 3), stride=(1, 1), padding=(1, 1))
          )
        )
        (1): LEB(
          (body): Sequential(
            (0): Conv2d(192, 192, kernel_size=(3, 3), stride=(1, 1), padding=(1, 1))
            (1): ReLU(inplace=True)
            (2): Conv2d(192, 192, kernel_size=(3, 3), stride=(1, 1), padding=(1, 1))
          )
        )
        (2): LEB(
          (body): Sequential(
            (0): Conv2d(192, 192, kernel_size=(3, 3), stride=(1, 1), padding=(1, 1))
            (1): ReLU(inplace=True)
            (2): Conv2d(192, 192, kernel_size=(3, 3), stride=(1, 1), padding=(1, 1))
          )
        )
        (3): LEB(
          (body): Sequential(
            (0): Conv2d(192, 192, kernel_size=(3, 3), stride=(1, 1), padding=(1, 1))
            (1): ReLU(inplace=True)
            (2): Conv2d(192, 192, kernel_size=(3, 3), stride=(1, 1), padding=(1, 1))
          )
        )
        (4): HSPA(
          (conv_match1): BasicBlock(
            (0): Conv2d(192, 96, kernel_size=(1, 1), stride=(1, 1))
            (1): PReLU(num_parameters=1)
          )
          (conv_match2): BasicBlock(
            (0): Conv2d(192, 96, kernel_size=(1, 1), stride=(1, 1))
            (1): PReLU(num_parameters=1)
          )
          (conv_assembly): BasicBlock(
            (0): Conv2d(192, 192, kernel_size=(1, 1), stride=(1, 1))
            (1): PReLU(num_parameters=1)
          )
          (ST): SoftThresholdingOperation()
        )
        (5): Conv2d(192, 192, kernel_size=(3, 3), stride=(1, 1), padding=(1, 1))
      )
    )
    (9): HSPAM(
      (body): Sequential(
        (0): LEB(
          (body): Sequential(
            (0): Conv2d(192, 192, kernel_size=(3, 3), stride=(1, 1), padding=(1, 1))
            (1): ReLU(inplace=True)
            (2): Conv2d(192, 192, kernel_size=(3, 3), stride=(1, 1), padding=(1, 1))
          )
        )
        (1): LEB(
          (body): Sequential(
            (0): Conv2d(192, 192, kernel_size=(3, 3), stride=(1, 1), padding=(1, 1))
            (1): ReLU(inplace=True)
            (2): Conv2d(192, 192, kernel_size=(3, 3), stride=(1, 1), padding=(1, 1))
          )
        )
        (2): LEB(
          (body): Sequential(
            (0): Conv2d(192, 192, kernel_size=(3, 3), stride=(1, 1), padding=(1, 1))
            (1): ReLU(inplace=True)
            (2): Conv2d(192, 192, kernel_size=(3, 3), stride=(1, 1), padding=(1, 1))
          )
        )
        (3): LEB(
          (body): Sequential(
            (0): Conv2d(192, 192, kernel_size=(3, 3), stride=(1, 1), padding=(1, 1))
            (1): ReLU(inplace=True)
            (2): Conv2d(192, 192, kernel_size=(3, 3), stride=(1, 1), padding=(1, 1))
          )
        )
        (4): HSPA(
          (conv_match1): BasicBlock(
            (0): Conv2d(192, 96, kernel_size=(1, 1), stride=(1, 1))
            (1): PReLU(num_parameters=1)
          )
          (conv_match2): BasicBlock(
            (0): Conv2d(192, 96, kernel_size=(1, 1), stride=(1, 1))
            (1): PReLU(num_parameters=1)
          )
          (conv_assembly): BasicBlock(
            (0): Conv2d(192, 192, kernel_size=(1, 1), stride=(1, 1))
            (1): PReLU(num_parameters=1)
          )
          (ST): SoftThresholdingOperation()
        )
        (5): Conv2d(192, 192, kernel_size=(3, 3), stride=(1, 1), padding=(1, 1))
      )
    )
    (10): Conv2d(192, 192, kernel_size=(3, 3), stride=(1, 1), padding=(1, 1))
  )
  (tail): Sequential(
    (0): Upsampler(
      (0): Conv2d(192, 768, kernel_size=(3, 3), stride=(1, 1), padding=(1, 1))
      (1): PixelShuffle(upscale_factor=2)
      (2): Conv2d(192, 768, kernel_size=(3, 3), stride=(1, 1), padding=(1, 1))
      (3): PixelShuffle(upscale_factor=2)
    )
    (1): Conv2d(192, 3, kernel_size=(3, 3), stride=(1, 1), padding=(1, 1))
  )
)

Evaluation:
HSPAN(
  (sub_mean): MeanShift(3, 3, kernel_size=(1, 1), stride=(1, 1))
  (add_mean): MeanShift(3, 3, kernel_size=(1, 1), stride=(1, 1))
  (head): Sequential(
    (0): Conv2d(3, 192, kernel_size=(3, 3), stride=(1, 1), padding=(1, 1))
  )
  (body): Sequential(
    (0): HSPAM(
      (body): Sequential(
        (0): LEB(
          (body): Sequential(
            (0): Conv2d(192, 192, kernel_size=(3, 3), stride=(1, 1), padding=(1, 1))
            (1): ReLU(inplace=True)
            (2): Conv2d(192, 192, kernel_size=(3, 3), stride=(1, 1), padding=(1, 1))
          )
        )
        (1): LEB(
          (body): Sequential(
            (0): Conv2d(192, 192, kernel_size=(3, 3), stride=(1, 1), padding=(1, 1))
            (1): ReLU(inplace=True)
            (2): Conv2d(192, 192, kernel_size=(3, 3), stride=(1, 1), padding=(1, 1))
          )
        )
        (2): LEB(
          (body): Sequential(
            (0): Conv2d(192, 192, kernel_size=(3, 3), stride=(1, 1), padding=(1, 1))
            (1): ReLU(inplace=True)
            (2): Conv2d(192, 192, kernel_size=(3, 3), stride=(1, 1), padding=(1, 1))
          )
        )
        (3): LEB(
          (body): Sequential(
            (0): Conv2d(192, 192, kernel_size=(3, 3), stride=(1, 1), padding=(1, 1))
            (1): ReLU(inplace=True)
            (2): Conv2d(192, 192, kernel_size=(3, 3), stride=(1, 1), padding=(1, 1))
          )
        )
        (4): HSPA(
          (conv_match1): BasicBlock(
            (0): Conv2d(192, 96, kernel_size=(1, 1), stride=(1, 1))
            (1): PReLU(num_parameters=1)
          )
          (conv_match2): BasicBlock(
            (0): Conv2d(192, 96, kernel_size=(1, 1), stride=(1, 1))
            (1): PReLU(num_parameters=1)
          )
          (conv_assembly): BasicBlock(
            (0): Conv2d(192, 192, kernel_size=(1, 1), stride=(1, 1))
            (1): PReLU(num_parameters=1)
          )
          (ST): SoftThresholdingOperation()
        )
        (5): Conv2d(192, 192, kernel_size=(3, 3), stride=(1, 1), padding=(1, 1))
      )
    )
    (1): HSPAM(
      (body): Sequential(
        (0): LEB(
          (body): Sequential(
            (0): Conv2d(192, 192, kernel_size=(3, 3), stride=(1, 1), padding=(1, 1))
            (1): ReLU(inplace=True)
            (2): Conv2d(192, 192, kernel_size=(3, 3), stride=(1, 1), padding=(1, 1))
          )
        )
        (1): LEB(
          (body): Sequential(
            (0): Conv2d(192, 192, kernel_size=(3, 3), stride=(1, 1), padding=(1, 1))
            (1): ReLU(inplace=True)
            (2): Conv2d(192, 192, kernel_size=(3, 3), stride=(1, 1), padding=(1, 1))
          )
        )
        (2): LEB(
          (body): Sequential(
            (0): Conv2d(192, 192, kernel_size=(3, 3), stride=(1, 1), padding=(1, 1))
            (1): ReLU(inplace=True)
            (2): Conv2d(192, 192, kernel_size=(3, 3), stride=(1, 1), padding=(1, 1))
          )
        )
        (3): LEB(
          (body): Sequential(
            (0): Conv2d(192, 192, kernel_size=(3, 3), stride=(1, 1), padding=(1, 1))
            (1): ReLU(inplace=True)
            (2): Conv2d(192, 192, kernel_size=(3, 3), stride=(1, 1), padding=(1, 1))
          )
        )
        (4): HSPA(
          (conv_match1): BasicBlock(
            (0): Conv2d(192, 96, kernel_size=(1, 1), stride=(1, 1))
            (1): PReLU(num_parameters=1)
          )
          (conv_match2): BasicBlock(
            (0): Conv2d(192, 96, kernel_size=(1, 1), stride=(1, 1))
            (1): PReLU(num_parameters=1)
          )
          (conv_assembly): BasicBlock(
            (0): Conv2d(192, 192, kernel_size=(1, 1), stride=(1, 1))
            (1): PReLU(num_parameters=1)
          )
          (ST): SoftThresholdingOperation()
        )
        (5): Conv2d(192, 192, kernel_size=(3, 3), stride=(1, 1), padding=(1, 1))
      )
    )
    (2): HSPAM(
      (body): Sequential(
        (0): LEB(
          (body): Sequential(
            (0): Conv2d(192, 192, kernel_size=(3, 3), stride=(1, 1), padding=(1, 1))
            (1): ReLU(inplace=True)
            (2): Conv2d(192, 192, kernel_size=(3, 3), stride=(1, 1), padding=(1, 1))
          )
        )
        (1): LEB(
          (body): Sequential(
            (0): Conv2d(192, 192, kernel_size=(3, 3), stride=(1, 1), padding=(1, 1))
            (1): ReLU(inplace=True)
            (2): Conv2d(192, 192, kernel_size=(3, 3), stride=(1, 1), padding=(1, 1))
          )
        )
        (2): LEB(
          (body): Sequential(
            (0): Conv2d(192, 192, kernel_size=(3, 3), stride=(1, 1), padding=(1, 1))
            (1): ReLU(inplace=True)
            (2): Conv2d(192, 192, kernel_size=(3, 3), stride=(1, 1), padding=(1, 1))
          )
        )
        (3): LEB(
          (body): Sequential(
            (0): Conv2d(192, 192, kernel_size=(3, 3), stride=(1, 1), padding=(1, 1))
            (1): ReLU(inplace=True)
            (2): Conv2d(192, 192, kernel_size=(3, 3), stride=(1, 1), padding=(1, 1))
          )
        )
        (4): HSPA(
          (conv_match1): BasicBlock(
            (0): Conv2d(192, 96, kernel_size=(1, 1), stride=(1, 1))
            (1): PReLU(num_parameters=1)
          )
          (conv_match2): BasicBlock(
            (0): Conv2d(192, 96, kernel_size=(1, 1), stride=(1, 1))
            (1): PReLU(num_parameters=1)
          )
          (conv_assembly): BasicBlock(
            (0): Conv2d(192, 192, kernel_size=(1, 1), stride=(1, 1))
            (1): PReLU(num_parameters=1)
          )
          (ST): SoftThresholdingOperation()
        )
        (5): Conv2d(192, 192, kernel_size=(3, 3), stride=(1, 1), padding=(1, 1))
      )
    )
    (3): HSPAM(
      (body): Sequential(
        (0): LEB(
          (body): Sequential(
            (0): Conv2d(192, 192, kernel_size=(3, 3), stride=(1, 1), padding=(1, 1))
            (1): ReLU(inplace=True)
            (2): Conv2d(192, 192, kernel_size=(3, 3), stride=(1, 1), padding=(1, 1))
          )
        )
        (1): LEB(
          (body): Sequential(
            (0): Conv2d(192, 192, kernel_size=(3, 3), stride=(1, 1), padding=(1, 1))
            (1): ReLU(inplace=True)
            (2): Conv2d(192, 192, kernel_size=(3, 3), stride=(1, 1), padding=(1, 1))
          )
        )
        (2): LEB(
          (body): Sequential(
            (0): Conv2d(192, 192, kernel_size=(3, 3), stride=(1, 1), padding=(1, 1))
            (1): ReLU(inplace=True)
            (2): Conv2d(192, 192, kernel_size=(3, 3), stride=(1, 1), padding=(1, 1))
          )
        )
        (3): LEB(
          (body): Sequential(
            (0): Conv2d(192, 192, kernel_size=(3, 3), stride=(1, 1), padding=(1, 1))
            (1): ReLU(inplace=True)
            (2): Conv2d(192, 192, kernel_size=(3, 3), stride=(1, 1), padding=(1, 1))
          )
        )
        (4): HSPA(
          (conv_match1): BasicBlock(
            (0): Conv2d(192, 96, kernel_size=(1, 1), stride=(1, 1))
            (1): PReLU(num_parameters=1)
          )
          (conv_match2): BasicBlock(
            (0): Conv2d(192, 96, kernel_size=(1, 1), stride=(1, 1))
            (1): PReLU(num_parameters=1)
          )
          (conv_assembly): BasicBlock(
            (0): Conv2d(192, 192, kernel_size=(1, 1), stride=(1, 1))
            (1): PReLU(num_parameters=1)
          )
          (ST): SoftThresholdingOperation()
        )
        (5): Conv2d(192, 192, kernel_size=(3, 3), stride=(1, 1), padding=(1, 1))
      )
    )
    (4): HSPAM(
      (body): Sequential(
        (0): LEB(
          (body): Sequential(
            (0): Conv2d(192, 192, kernel_size=(3, 3), stride=(1, 1), padding=(1, 1))
            (1): ReLU(inplace=True)
            (2): Conv2d(192, 192, kernel_size=(3, 3), stride=(1, 1), padding=(1, 1))
          )
        )
        (1): LEB(
          (body): Sequential(
            (0): Conv2d(192, 192, kernel_size=(3, 3), stride=(1, 1), padding=(1, 1))
            (1): ReLU(inplace=True)
            (2): Conv2d(192, 192, kernel_size=(3, 3), stride=(1, 1), padding=(1, 1))
          )
        )
        (2): LEB(
          (body): Sequential(
            (0): Conv2d(192, 192, kernel_size=(3, 3), stride=(1, 1), padding=(1, 1))
            (1): ReLU(inplace=True)
            (2): Conv2d(192, 192, kernel_size=(3, 3), stride=(1, 1), padding=(1, 1))
          )
        )
        (3): LEB(
          (body): Sequential(
            (0): Conv2d(192, 192, kernel_size=(3, 3), stride=(1, 1), padding=(1, 1))
            (1): ReLU(inplace=True)
            (2): Conv2d(192, 192, kernel_size=(3, 3), stride=(1, 1), padding=(1, 1))
          )
        )
        (4): HSPA(
          (conv_match1): BasicBlock(
            (0): Conv2d(192, 96, kernel_size=(1, 1), stride=(1, 1))
            (1): PReLU(num_parameters=1)
          )
          (conv_match2): BasicBlock(
            (0): Conv2d(192, 96, kernel_size=(1, 1), stride=(1, 1))
            (1): PReLU(num_parameters=1)
          )
          (conv_assembly): BasicBlock(
            (0): Conv2d(192, 192, kernel_size=(1, 1), stride=(1, 1))
            (1): PReLU(num_parameters=1)
          )
          (ST): SoftThresholdingOperation()
        )
        (5): Conv2d(192, 192, kernel_size=(3, 3), stride=(1, 1), padding=(1, 1))
      )
    )
    (5): HSPAM(
      (body): Sequential(
        (0): LEB(
          (body): Sequential(
            (0): Conv2d(192, 192, kernel_size=(3, 3), stride=(1, 1), padding=(1, 1))
            (1): ReLU(inplace=True)
            (2): Conv2d(192, 192, kernel_size=(3, 3), stride=(1, 1), padding=(1, 1))
          )
        )
        (1): LEB(
          (body): Sequential(
            (0): Conv2d(192, 192, kernel_size=(3, 3), stride=(1, 1), padding=(1, 1))
            (1): ReLU(inplace=True)
            (2): Conv2d(192, 192, kernel_size=(3, 3), stride=(1, 1), padding=(1, 1))
          )
        )
        (2): LEB(
          (body): Sequential(
            (0): Conv2d(192, 192, kernel_size=(3, 3), stride=(1, 1), padding=(1, 1))
            (1): ReLU(inplace=True)
            (2): Conv2d(192, 192, kernel_size=(3, 3), stride=(1, 1), padding=(1, 1))
          )
        )
        (3): LEB(
          (body): Sequential(
            (0): Conv2d(192, 192, kernel_size=(3, 3), stride=(1, 1), padding=(1, 1))
            (1): ReLU(inplace=True)
            (2): Conv2d(192, 192, kernel_size=(3, 3), stride=(1, 1), padding=(1, 1))
          )
        )
        (4): HSPA(
          (conv_match1): BasicBlock(
            (0): Conv2d(192, 96, kernel_size=(1, 1), stride=(1, 1))
            (1): PReLU(num_parameters=1)
          )
          (conv_match2): BasicBlock(
            (0): Conv2d(192, 96, kernel_size=(1, 1), stride=(1, 1))
            (1): PReLU(num_parameters=1)
          )
          (conv_assembly): BasicBlock(
            (0): Conv2d(192, 192, kernel_size=(1, 1), stride=(1, 1))
            (1): PReLU(num_parameters=1)
          )
          (ST): SoftThresholdingOperation()
        )
        (5): Conv2d(192, 192, kernel_size=(3, 3), stride=(1, 1), padding=(1, 1))
      )
    )
    (6): HSPAM(
      (body): Sequential(
        (0): LEB(
          (body): Sequential(
            (0): Conv2d(192, 192, kernel_size=(3, 3), stride=(1, 1), padding=(1, 1))
            (1): ReLU(inplace=True)
            (2): Conv2d(192, 192, kernel_size=(3, 3), stride=(1, 1), padding=(1, 1))
          )
        )
        (1): LEB(
          (body): Sequential(
            (0): Conv2d(192, 192, kernel_size=(3, 3), stride=(1, 1), padding=(1, 1))
            (1): ReLU(inplace=True)
            (2): Conv2d(192, 192, kernel_size=(3, 3), stride=(1, 1), padding=(1, 1))
          )
        )
        (2): LEB(
          (body): Sequential(
            (0): Conv2d(192, 192, kernel_size=(3, 3), stride=(1, 1), padding=(1, 1))
            (1): ReLU(inplace=True)
            (2): Conv2d(192, 192, kernel_size=(3, 3), stride=(1, 1), padding=(1, 1))
          )
        )
        (3): LEB(
          (body): Sequential(
            (0): Conv2d(192, 192, kernel_size=(3, 3), stride=(1, 1), padding=(1, 1))
            (1): ReLU(inplace=True)
            (2): Conv2d(192, 192, kernel_size=(3, 3), stride=(1, 1), padding=(1, 1))
          )
        )
        (4): HSPA(
          (conv_match1): BasicBlock(
            (0): Conv2d(192, 96, kernel_size=(1, 1), stride=(1, 1))
            (1): PReLU(num_parameters=1)
          )
          (conv_match2): BasicBlock(
            (0): Conv2d(192, 96, kernel_size=(1, 1), stride=(1, 1))
            (1): PReLU(num_parameters=1)
          )
          (conv_assembly): BasicBlock(
            (0): Conv2d(192, 192, kernel_size=(1, 1), stride=(1, 1))
            (1): PReLU(num_parameters=1)
          )
          (ST): SoftThresholdingOperation()
        )
        (5): Conv2d(192, 192, kernel_size=(3, 3), stride=(1, 1), padding=(1, 1))
      )
    )
    (7): HSPAM(
      (body): Sequential(
        (0): LEB(
          (body): Sequential(
            (0): Conv2d(192, 192, kernel_size=(3, 3), stride=(1, 1), padding=(1, 1))
            (1): ReLU(inplace=True)
            (2): Conv2d(192, 192, kernel_size=(3, 3), stride=(1, 1), padding=(1, 1))
          )
        )
        (1): LEB(
          (body): Sequential(
            (0): Conv2d(192, 192, kernel_size=(3, 3), stride=(1, 1), padding=(1, 1))
            (1): ReLU(inplace=True)
            (2): Conv2d(192, 192, kernel_size=(3, 3), stride=(1, 1), padding=(1, 1))
          )
        )
        (2): LEB(
          (body): Sequential(
            (0): Conv2d(192, 192, kernel_size=(3, 3), stride=(1, 1), padding=(1, 1))
            (1): ReLU(inplace=True)
            (2): Conv2d(192, 192, kernel_size=(3, 3), stride=(1, 1), padding=(1, 1))
          )
        )
        (3): LEB(
          (body): Sequential(
            (0): Conv2d(192, 192, kernel_size=(3, 3), stride=(1, 1), padding=(1, 1))
            (1): ReLU(inplace=True)
            (2): Conv2d(192, 192, kernel_size=(3, 3), stride=(1, 1), padding=(1, 1))
          )
        )
        (4): HSPA(
          (conv_match1): BasicBlock(
            (0): Conv2d(192, 96, kernel_size=(1, 1), stride=(1, 1))
            (1): PReLU(num_parameters=1)
          )
          (conv_match2): BasicBlock(
            (0): Conv2d(192, 96, kernel_size=(1, 1), stride=(1, 1))
            (1): PReLU(num_parameters=1)
          )
          (conv_assembly): BasicBlock(
            (0): Conv2d(192, 192, kernel_size=(1, 1), stride=(1, 1))
            (1): PReLU(num_parameters=1)
          )
          (ST): SoftThresholdingOperation()
        )
        (5): Conv2d(192, 192, kernel_size=(3, 3), stride=(1, 1), padding=(1, 1))
      )
    )
    (8): HSPAM(
      (body): Sequential(
        (0): LEB(
          (body): Sequential(
            (0): Conv2d(192, 192, kernel_size=(3, 3), stride=(1, 1), padding=(1, 1))
            (1): ReLU(inplace=True)
            (2): Conv2d(192, 192, kernel_size=(3, 3), stride=(1, 1), padding=(1, 1))
          )
        )
        (1): LEB(
          (body): Sequential(
            (0): Conv2d(192, 192, kernel_size=(3, 3), stride=(1, 1), padding=(1, 1))
            (1): ReLU(inplace=True)
            (2): Conv2d(192, 192, kernel_size=(3, 3), stride=(1, 1), padding=(1, 1))
          )
        )
        (2): LEB(
          (body): Sequential(
            (0): Conv2d(192, 192, kernel_size=(3, 3), stride=(1, 1), padding=(1, 1))
            (1): ReLU(inplace=True)
            (2): Conv2d(192, 192, kernel_size=(3, 3), stride=(1, 1), padding=(1, 1))
          )
        )
        (3): LEB(
          (body): Sequential(
            (0): Conv2d(192, 192, kernel_size=(3, 3), stride=(1, 1), padding=(1, 1))
            (1): ReLU(inplace=True)
            (2): Conv2d(192, 192, kernel_size=(3, 3), stride=(1, 1), padding=(1, 1))
          )
        )
        (4): HSPA(
          (conv_match1): BasicBlock(
            (0): Conv2d(192, 96, kernel_size=(1, 1), stride=(1, 1))
            (1): PReLU(num_parameters=1)
          )
          (conv_match2): BasicBlock(
            (0): Conv2d(192, 96, kernel_size=(1, 1), stride=(1, 1))
            (1): PReLU(num_parameters=1)
          )
          (conv_assembly): BasicBlock(
            (0): Conv2d(192, 192, kernel_size=(1, 1), stride=(1, 1))
            (1): PReLU(num_parameters=1)
          )
          (ST): SoftThresholdingOperation()
        )
        (5): Conv2d(192, 192, kernel_size=(3, 3), stride=(1, 1), padding=(1, 1))
      )
    )
    (9): HSPAM(
      (body): Sequential(
        (0): LEB(
          (body): Sequential(
            (0): Conv2d(192, 192, kernel_size=(3, 3), stride=(1, 1), padding=(1, 1))
            (1): ReLU(inplace=True)
            (2): Conv2d(192, 192, kernel_size=(3, 3), stride=(1, 1), padding=(1, 1))
          )
        )
        (1): LEB(
          (body): Sequential(
            (0): Conv2d(192, 192, kernel_size=(3, 3), stride=(1, 1), padding=(1, 1))
            (1): ReLU(inplace=True)
            (2): Conv2d(192, 192, kernel_size=(3, 3), stride=(1, 1), padding=(1, 1))
          )
        )
        (2): LEB(
          (body): Sequential(
            (0): Conv2d(192, 192, kernel_size=(3, 3), stride=(1, 1), padding=(1, 1))
            (1): ReLU(inplace=True)
            (2): Conv2d(192, 192, kernel_size=(3, 3), stride=(1, 1), padding=(1, 1))
          )
        )
        (3): LEB(
          (body): Sequential(
            (0): Conv2d(192, 192, kernel_size=(3, 3), stride=(1, 1), padding=(1, 1))
            (1): ReLU(inplace=True)
            (2): Conv2d(192, 192, kernel_size=(3, 3), stride=(1, 1), padding=(1, 1))
          )
        )
        (4): HSPA(
          (conv_match1): BasicBlock(
            (0): Conv2d(192, 96, kernel_size=(1, 1), stride=(1, 1))
            (1): PReLU(num_parameters=1)
          )
          (conv_match2): BasicBlock(
            (0): Conv2d(192, 96, kernel_size=(1, 1), stride=(1, 1))
            (1): PReLU(num_parameters=1)
          )
          (conv_assembly): BasicBlock(
            (0): Conv2d(192, 192, kernel_size=(1, 1), stride=(1, 1))
            (1): PReLU(num_parameters=1)
          )
          (ST): SoftThresholdingOperation()
        )
        (5): Conv2d(192, 192, kernel_size=(3, 3), stride=(1, 1), padding=(1, 1))
      )
    )
    (10): Conv2d(192, 192, kernel_size=(3, 3), stride=(1, 1), padding=(1, 1))
  )
  (tail): Sequential(
    (0): Upsampler(
      (0): Conv2d(192, 768, kernel_size=(3, 3), stride=(1, 1), padding=(1, 1))
      (1): PixelShuffle(upscale_factor=2)
      (2): Conv2d(192, 768, kernel_size=(3, 3), stride=(1, 1), padding=(1, 1))
      (3): PixelShuffle(upscale_factor=2)
    )
    (1): Conv2d(192, 3, kernel_size=(3, 3), stride=(1, 1), padding=(1, 1))
  )
)

Evaluation:
HSPAN(
  (sub_mean): MeanShift(3, 3, kernel_size=(1, 1), stride=(1, 1))
  (add_mean): MeanShift(3, 3, kernel_size=(1, 1), stride=(1, 1))
  (head): Sequential(
    (0): Conv2d(3, 192, kernel_size=(3, 3), stride=(1, 1), padding=(1, 1))
  )
  (body): Sequential(
    (0): HSPAM(
      (body): Sequential(
        (0): LEB(
          (body): Sequential(
            (0): Conv2d(192, 192, kernel_size=(3, 3), stride=(1, 1), padding=(1, 1))
            (1): ReLU(inplace=True)
            (2): Conv2d(192, 192, kernel_size=(3, 3), stride=(1, 1), padding=(1, 1))
          )
        )
        (1): LEB(
          (body): Sequential(
            (0): Conv2d(192, 192, kernel_size=(3, 3), stride=(1, 1), padding=(1, 1))
            (1): ReLU(inplace=True)
            (2): Conv2d(192, 192, kernel_size=(3, 3), stride=(1, 1), padding=(1, 1))
          )
        )
        (2): LEB(
          (body): Sequential(
            (0): Conv2d(192, 192, kernel_size=(3, 3), stride=(1, 1), padding=(1, 1))
            (1): ReLU(inplace=True)
            (2): Conv2d(192, 192, kernel_size=(3, 3), stride=(1, 1), padding=(1, 1))
          )
        )
        (3): LEB(
          (body): Sequential(
            (0): Conv2d(192, 192, kernel_size=(3, 3), stride=(1, 1), padding=(1, 1))
            (1): ReLU(inplace=True)
            (2): Conv2d(192, 192, kernel_size=(3, 3), stride=(1, 1), padding=(1, 1))
          )
        )
        (4): HSPA(
          (conv_match1): BasicBlock(
            (0): Conv2d(192, 96, kernel_size=(1, 1), stride=(1, 1))
            (1): PReLU(num_parameters=1)
          )
          (conv_match2): BasicBlock(
            (0): Conv2d(192, 96, kernel_size=(1, 1), stride=(1, 1))
            (1): PReLU(num_parameters=1)
          )
          (conv_assembly): BasicBlock(
            (0): Conv2d(192, 192, kernel_size=(1, 1), stride=(1, 1))
            (1): PReLU(num_parameters=1)
          )
          (ST): SoftThresholdingOperation()
        )
        (5): Conv2d(192, 192, kernel_size=(3, 3), stride=(1, 1), padding=(1, 1))
      )
    )
    (1): HSPAM(
      (body): Sequential(
        (0): LEB(
          (body): Sequential(
            (0): Conv2d(192, 192, kernel_size=(3, 3), stride=(1, 1), padding=(1, 1))
            (1): ReLU(inplace=True)
            (2): Conv2d(192, 192, kernel_size=(3, 3), stride=(1, 1), padding=(1, 1))
          )
        )
        (1): LEB(
          (body): Sequential(
            (0): Conv2d(192, 192, kernel_size=(3, 3), stride=(1, 1), padding=(1, 1))
            (1): ReLU(inplace=True)
            (2): Conv2d(192, 192, kernel_size=(3, 3), stride=(1, 1), padding=(1, 1))
          )
        )
        (2): LEB(
          (body): Sequential(
            (0): Conv2d(192, 192, kernel_size=(3, 3), stride=(1, 1), padding=(1, 1))
            (1): ReLU(inplace=True)
            (2): Conv2d(192, 192, kernel_size=(3, 3), stride=(1, 1), padding=(1, 1))
          )
        )
        (3): LEB(
          (body): Sequential(
            (0): Conv2d(192, 192, kernel_size=(3, 3), stride=(1, 1), padding=(1, 1))
            (1): ReLU(inplace=True)
            (2): Conv2d(192, 192, kernel_size=(3, 3), stride=(1, 1), padding=(1, 1))
          )
        )
        (4): HSPA(
          (conv_match1): BasicBlock(
            (0): Conv2d(192, 96, kernel_size=(1, 1), stride=(1, 1))
            (1): PReLU(num_parameters=1)
          )
          (conv_match2): BasicBlock(
            (0): Conv2d(192, 96, kernel_size=(1, 1), stride=(1, 1))
            (1): PReLU(num_parameters=1)
          )
          (conv_assembly): BasicBlock(
            (0): Conv2d(192, 192, kernel_size=(1, 1), stride=(1, 1))
            (1): PReLU(num_parameters=1)
          )
          (ST): SoftThresholdingOperation()
        )
        (5): Conv2d(192, 192, kernel_size=(3, 3), stride=(1, 1), padding=(1, 1))
      )
    )
    (2): HSPAM(
      (body): Sequential(
        (0): LEB(
          (body): Sequential(
            (0): Conv2d(192, 192, kernel_size=(3, 3), stride=(1, 1), padding=(1, 1))
            (1): ReLU(inplace=True)
            (2): Conv2d(192, 192, kernel_size=(3, 3), stride=(1, 1), padding=(1, 1))
          )
        )
        (1): LEB(
          (body): Sequential(
            (0): Conv2d(192, 192, kernel_size=(3, 3), stride=(1, 1), padding=(1, 1))
            (1): ReLU(inplace=True)
            (2): Conv2d(192, 192, kernel_size=(3, 3), stride=(1, 1), padding=(1, 1))
          )
        )
        (2): LEB(
          (body): Sequential(
            (0): Conv2d(192, 192, kernel_size=(3, 3), stride=(1, 1), padding=(1, 1))
            (1): ReLU(inplace=True)
            (2): Conv2d(192, 192, kernel_size=(3, 3), stride=(1, 1), padding=(1, 1))
          )
        )
        (3): LEB(
          (body): Sequential(
            (0): Conv2d(192, 192, kernel_size=(3, 3), stride=(1, 1), padding=(1, 1))
            (1): ReLU(inplace=True)
            (2): Conv2d(192, 192, kernel_size=(3, 3), stride=(1, 1), padding=(1, 1))
          )
        )
        (4): HSPA(
          (conv_match1): BasicBlock(
            (0): Conv2d(192, 96, kernel_size=(1, 1), stride=(1, 1))
            (1): PReLU(num_parameters=1)
          )
          (conv_match2): BasicBlock(
            (0): Conv2d(192, 96, kernel_size=(1, 1), stride=(1, 1))
            (1): PReLU(num_parameters=1)
          )
          (conv_assembly): BasicBlock(
            (0): Conv2d(192, 192, kernel_size=(1, 1), stride=(1, 1))
            (1): PReLU(num_parameters=1)
          )
          (ST): SoftThresholdingOperation()
        )
        (5): Conv2d(192, 192, kernel_size=(3, 3), stride=(1, 1), padding=(1, 1))
      )
    )
    (3): HSPAM(
      (body): Sequential(
        (0): LEB(
          (body): Sequential(
            (0): Conv2d(192, 192, kernel_size=(3, 3), stride=(1, 1), padding=(1, 1))
            (1): ReLU(inplace=True)
            (2): Conv2d(192, 192, kernel_size=(3, 3), stride=(1, 1), padding=(1, 1))
          )
        )
        (1): LEB(
          (body): Sequential(
            (0): Conv2d(192, 192, kernel_size=(3, 3), stride=(1, 1), padding=(1, 1))
            (1): ReLU(inplace=True)
            (2): Conv2d(192, 192, kernel_size=(3, 3), stride=(1, 1), padding=(1, 1))
          )
        )
        (2): LEB(
          (body): Sequential(
            (0): Conv2d(192, 192, kernel_size=(3, 3), stride=(1, 1), padding=(1, 1))
            (1): ReLU(inplace=True)
            (2): Conv2d(192, 192, kernel_size=(3, 3), stride=(1, 1), padding=(1, 1))
          )
        )
        (3): LEB(
          (body): Sequential(
            (0): Conv2d(192, 192, kernel_size=(3, 3), stride=(1, 1), padding=(1, 1))
            (1): ReLU(inplace=True)
            (2): Conv2d(192, 192, kernel_size=(3, 3), stride=(1, 1), padding=(1, 1))
          )
        )
        (4): HSPA(
          (conv_match1): BasicBlock(
            (0): Conv2d(192, 96, kernel_size=(1, 1), stride=(1, 1))
            (1): PReLU(num_parameters=1)
          )
          (conv_match2): BasicBlock(
            (0): Conv2d(192, 96, kernel_size=(1, 1), stride=(1, 1))
            (1): PReLU(num_parameters=1)
          )
          (conv_assembly): BasicBlock(
            (0): Conv2d(192, 192, kernel_size=(1, 1), stride=(1, 1))
            (1): PReLU(num_parameters=1)
          )
          (ST): SoftThresholdingOperation()
        )
        (5): Conv2d(192, 192, kernel_size=(3, 3), stride=(1, 1), padding=(1, 1))
      )
    )
    (4): HSPAM(
      (body): Sequential(
        (0): LEB(
          (body): Sequential(
            (0): Conv2d(192, 192, kernel_size=(3, 3), stride=(1, 1), padding=(1, 1))
            (1): ReLU(inplace=True)
            (2): Conv2d(192, 192, kernel_size=(3, 3), stride=(1, 1), padding=(1, 1))
          )
        )
        (1): LEB(
          (body): Sequential(
            (0): Conv2d(192, 192, kernel_size=(3, 3), stride=(1, 1), padding=(1, 1))
            (1): ReLU(inplace=True)
            (2): Conv2d(192, 192, kernel_size=(3, 3), stride=(1, 1), padding=(1, 1))
          )
        )
        (2): LEB(
          (body): Sequential(
            (0): Conv2d(192, 192, kernel_size=(3, 3), stride=(1, 1), padding=(1, 1))
            (1): ReLU(inplace=True)
            (2): Conv2d(192, 192, kernel_size=(3, 3), stride=(1, 1), padding=(1, 1))
          )
        )
        (3): LEB(
          (body): Sequential(
            (0): Conv2d(192, 192, kernel_size=(3, 3), stride=(1, 1), padding=(1, 1))
            (1): ReLU(inplace=True)
            (2): Conv2d(192, 192, kernel_size=(3, 3), stride=(1, 1), padding=(1, 1))
          )
        )
        (4): HSPA(
          (conv_match1): BasicBlock(
            (0): Conv2d(192, 96, kernel_size=(1, 1), stride=(1, 1))
            (1): PReLU(num_parameters=1)
          )
          (conv_match2): BasicBlock(
            (0): Conv2d(192, 96, kernel_size=(1, 1), stride=(1, 1))
            (1): PReLU(num_parameters=1)
          )
          (conv_assembly): BasicBlock(
            (0): Conv2d(192, 192, kernel_size=(1, 1), stride=(1, 1))
            (1): PReLU(num_parameters=1)
          )
          (ST): SoftThresholdingOperation()
        )
        (5): Conv2d(192, 192, kernel_size=(3, 3), stride=(1, 1), padding=(1, 1))
      )
    )
    (5): HSPAM(
      (body): Sequential(
        (0): LEB(
          (body): Sequential(
            (0): Conv2d(192, 192, kernel_size=(3, 3), stride=(1, 1), padding=(1, 1))
            (1): ReLU(inplace=True)
            (2): Conv2d(192, 192, kernel_size=(3, 3), stride=(1, 1), padding=(1, 1))
          )
        )
        (1): LEB(
          (body): Sequential(
            (0): Conv2d(192, 192, kernel_size=(3, 3), stride=(1, 1), padding=(1, 1))
            (1): ReLU(inplace=True)
            (2): Conv2d(192, 192, kernel_size=(3, 3), stride=(1, 1), padding=(1, 1))
          )
        )
        (2): LEB(
          (body): Sequential(
            (0): Conv2d(192, 192, kernel_size=(3, 3), stride=(1, 1), padding=(1, 1))
            (1): ReLU(inplace=True)
            (2): Conv2d(192, 192, kernel_size=(3, 3), stride=(1, 1), padding=(1, 1))
          )
        )
        (3): LEB(
          (body): Sequential(
            (0): Conv2d(192, 192, kernel_size=(3, 3), stride=(1, 1), padding=(1, 1))
            (1): ReLU(inplace=True)
            (2): Conv2d(192, 192, kernel_size=(3, 3), stride=(1, 1), padding=(1, 1))
          )
        )
        (4): HSPA(
          (conv_match1): BasicBlock(
            (0): Conv2d(192, 96, kernel_size=(1, 1), stride=(1, 1))
            (1): PReLU(num_parameters=1)
          )
          (conv_match2): BasicBlock(
            (0): Conv2d(192, 96, kernel_size=(1, 1), stride=(1, 1))
            (1): PReLU(num_parameters=1)
          )
          (conv_assembly): BasicBlock(
            (0): Conv2d(192, 192, kernel_size=(1, 1), stride=(1, 1))
            (1): PReLU(num_parameters=1)
          )
          (ST): SoftThresholdingOperation()
        )
        (5): Conv2d(192, 192, kernel_size=(3, 3), stride=(1, 1), padding=(1, 1))
      )
    )
    (6): HSPAM(
      (body): Sequential(
        (0): LEB(
          (body): Sequential(
            (0): Conv2d(192, 192, kernel_size=(3, 3), stride=(1, 1), padding=(1, 1))
            (1): ReLU(inplace=True)
            (2): Conv2d(192, 192, kernel_size=(3, 3), stride=(1, 1), padding=(1, 1))
          )
        )
        (1): LEB(
          (body): Sequential(
            (0): Conv2d(192, 192, kernel_size=(3, 3), stride=(1, 1), padding=(1, 1))
            (1): ReLU(inplace=True)
            (2): Conv2d(192, 192, kernel_size=(3, 3), stride=(1, 1), padding=(1, 1))
          )
        )
        (2): LEB(
          (body): Sequential(
            (0): Conv2d(192, 192, kernel_size=(3, 3), stride=(1, 1), padding=(1, 1))
            (1): ReLU(inplace=True)
            (2): Conv2d(192, 192, kernel_size=(3, 3), stride=(1, 1), padding=(1, 1))
          )
        )
        (3): LEB(
          (body): Sequential(
            (0): Conv2d(192, 192, kernel_size=(3, 3), stride=(1, 1), padding=(1, 1))
            (1): ReLU(inplace=True)
            (2): Conv2d(192, 192, kernel_size=(3, 3), stride=(1, 1), padding=(1, 1))
          )
        )
        (4): HSPA(
          (conv_match1): BasicBlock(
            (0): Conv2d(192, 96, kernel_size=(1, 1), stride=(1, 1))
            (1): PReLU(num_parameters=1)
          )
          (conv_match2): BasicBlock(
            (0): Conv2d(192, 96, kernel_size=(1, 1), stride=(1, 1))
            (1): PReLU(num_parameters=1)
          )
          (conv_assembly): BasicBlock(
            (0): Conv2d(192, 192, kernel_size=(1, 1), stride=(1, 1))
            (1): PReLU(num_parameters=1)
          )
          (ST): SoftThresholdingOperation()
        )
        (5): Conv2d(192, 192, kernel_size=(3, 3), stride=(1, 1), padding=(1, 1))
      )
    )
    (7): HSPAM(
      (body): Sequential(
        (0): LEB(
          (body): Sequential(
            (0): Conv2d(192, 192, kernel_size=(3, 3), stride=(1, 1), padding=(1, 1))
            (1): ReLU(inplace=True)
            (2): Conv2d(192, 192, kernel_size=(3, 3), stride=(1, 1), padding=(1, 1))
          )
        )
        (1): LEB(
          (body): Sequential(
            (0): Conv2d(192, 192, kernel_size=(3, 3), stride=(1, 1), padding=(1, 1))
            (1): ReLU(inplace=True)
            (2): Conv2d(192, 192, kernel_size=(3, 3), stride=(1, 1), padding=(1, 1))
          )
        )
        (2): LEB(
          (body): Sequential(
            (0): Conv2d(192, 192, kernel_size=(3, 3), stride=(1, 1), padding=(1, 1))
            (1): ReLU(inplace=True)
            (2): Conv2d(192, 192, kernel_size=(3, 3), stride=(1, 1), padding=(1, 1))
          )
        )
        (3): LEB(
          (body): Sequential(
            (0): Conv2d(192, 192, kernel_size=(3, 3), stride=(1, 1), padding=(1, 1))
            (1): ReLU(inplace=True)
            (2): Conv2d(192, 192, kernel_size=(3, 3), stride=(1, 1), padding=(1, 1))
          )
        )
        (4): HSPA(
          (conv_match1): BasicBlock(
            (0): Conv2d(192, 96, kernel_size=(1, 1), stride=(1, 1))
            (1): PReLU(num_parameters=1)
          )
          (conv_match2): BasicBlock(
            (0): Conv2d(192, 96, kernel_size=(1, 1), stride=(1, 1))
            (1): PReLU(num_parameters=1)
          )
          (conv_assembly): BasicBlock(
            (0): Conv2d(192, 192, kernel_size=(1, 1), stride=(1, 1))
            (1): PReLU(num_parameters=1)
          )
          (ST): SoftThresholdingOperation()
        )
        (5): Conv2d(192, 192, kernel_size=(3, 3), stride=(1, 1), padding=(1, 1))
      )
    )
    (8): HSPAM(
      (body): Sequential(
        (0): LEB(
          (body): Sequential(
            (0): Conv2d(192, 192, kernel_size=(3, 3), stride=(1, 1), padding=(1, 1))
            (1): ReLU(inplace=True)
            (2): Conv2d(192, 192, kernel_size=(3, 3), stride=(1, 1), padding=(1, 1))
          )
        )
        (1): LEB(
          (body): Sequential(
            (0): Conv2d(192, 192, kernel_size=(3, 3), stride=(1, 1), padding=(1, 1))
            (1): ReLU(inplace=True)
            (2): Conv2d(192, 192, kernel_size=(3, 3), stride=(1, 1), padding=(1, 1))
          )
        )
        (2): LEB(
          (body): Sequential(
            (0): Conv2d(192, 192, kernel_size=(3, 3), stride=(1, 1), padding=(1, 1))
            (1): ReLU(inplace=True)
            (2): Conv2d(192, 192, kernel_size=(3, 3), stride=(1, 1), padding=(1, 1))
          )
        )
        (3): LEB(
          (body): Sequential(
            (0): Conv2d(192, 192, kernel_size=(3, 3), stride=(1, 1), padding=(1, 1))
            (1): ReLU(inplace=True)
            (2): Conv2d(192, 192, kernel_size=(3, 3), stride=(1, 1), padding=(1, 1))
          )
        )
        (4): HSPA(
          (conv_match1): BasicBlock(
            (0): Conv2d(192, 96, kernel_size=(1, 1), stride=(1, 1))
            (1): PReLU(num_parameters=1)
          )
          (conv_match2): BasicBlock(
            (0): Conv2d(192, 96, kernel_size=(1, 1), stride=(1, 1))
            (1): PReLU(num_parameters=1)
          )
          (conv_assembly): BasicBlock(
            (0): Conv2d(192, 192, kernel_size=(1, 1), stride=(1, 1))
            (1): PReLU(num_parameters=1)
          )
          (ST): SoftThresholdingOperation()
        )
        (5): Conv2d(192, 192, kernel_size=(3, 3), stride=(1, 1), padding=(1, 1))
      )
    )
    (9): HSPAM(
      (body): Sequential(
        (0): LEB(
          (body): Sequential(
            (0): Conv2d(192, 192, kernel_size=(3, 3), stride=(1, 1), padding=(1, 1))
            (1): ReLU(inplace=True)
            (2): Conv2d(192, 192, kernel_size=(3, 3), stride=(1, 1), padding=(1, 1))
          )
        )
        (1): LEB(
          (body): Sequential(
            (0): Conv2d(192, 192, kernel_size=(3, 3), stride=(1, 1), padding=(1, 1))
            (1): ReLU(inplace=True)
            (2): Conv2d(192, 192, kernel_size=(3, 3), stride=(1, 1), padding=(1, 1))
          )
        )
        (2): LEB(
          (body): Sequential(
            (0): Conv2d(192, 192, kernel_size=(3, 3), stride=(1, 1), padding=(1, 1))
            (1): ReLU(inplace=True)
            (2): Conv2d(192, 192, kernel_size=(3, 3), stride=(1, 1), padding=(1, 1))
          )
        )
        (3): LEB(
          (body): Sequential(
            (0): Conv2d(192, 192, kernel_size=(3, 3), stride=(1, 1), padding=(1, 1))
            (1): ReLU(inplace=True)
            (2): Conv2d(192, 192, kernel_size=(3, 3), stride=(1, 1), padding=(1, 1))
          )
        )
        (4): HSPA(
          (conv_match1): BasicBlock(
            (0): Conv2d(192, 96, kernel_size=(1, 1), stride=(1, 1))
            (1): PReLU(num_parameters=1)
          )
          (conv_match2): BasicBlock(
            (0): Conv2d(192, 96, kernel_size=(1, 1), stride=(1, 1))
            (1): PReLU(num_parameters=1)
          )
          (conv_assembly): BasicBlock(
            (0): Conv2d(192, 192, kernel_size=(1, 1), stride=(1, 1))
            (1): PReLU(num_parameters=1)
          )
          (ST): SoftThresholdingOperation()
        )
        (5): Conv2d(192, 192, kernel_size=(3, 3), stride=(1, 1), padding=(1, 1))
      )
    )
    (10): Conv2d(192, 192, kernel_size=(3, 3), stride=(1, 1), padding=(1, 1))
  )
  (tail): Sequential(
    (0): Upsampler(
      (0): Conv2d(192, 768, kernel_size=(3, 3), stride=(1, 1), padding=(1, 1))
      (1): PixelShuffle(upscale_factor=2)
      (2): Conv2d(192, 768, kernel_size=(3, 3), stride=(1, 1), padding=(1, 1))
      (3): PixelShuffle(upscale_factor=2)
    )
    (1): Conv2d(192, 3, kernel_size=(3, 3), stride=(1, 1), padding=(1, 1))
  )
)

Evaluation:
HSPAN(
  (sub_mean): MeanShift(3, 3, kernel_size=(1, 1), stride=(1, 1))
  (add_mean): MeanShift(3, 3, kernel_size=(1, 1), stride=(1, 1))
  (head): Sequential(
    (0): Conv2d(3, 32, kernel_size=(3, 3), stride=(1, 1), padding=(1, 1))
  )
  (body): Sequential(
    (0): HSPAM(
      (body): Sequential(
        (0): LEB(
          (body): Sequential(
            (0): Conv2d(32, 32, kernel_size=(3, 3), stride=(1, 1), padding=(1, 1))
            (1): ReLU(inplace=True)
            (2): Conv2d(32, 32, kernel_size=(3, 3), stride=(1, 1), padding=(1, 1))
          )
        )
        (1): LEB(
          (body): Sequential(
            (0): Conv2d(32, 32, kernel_size=(3, 3), stride=(1, 1), padding=(1, 1))
            (1): ReLU(inplace=True)
            (2): Conv2d(32, 32, kernel_size=(3, 3), stride=(1, 1), padding=(1, 1))
          )
        )
        (2): LEB(
          (body): Sequential(
            (0): Conv2d(32, 32, kernel_size=(3, 3), stride=(1, 1), padding=(1, 1))
            (1): ReLU(inplace=True)
            (2): Conv2d(32, 32, kernel_size=(3, 3), stride=(1, 1), padding=(1, 1))
          )
        )
        (3): LEB(
          (body): Sequential(
            (0): Conv2d(32, 32, kernel_size=(3, 3), stride=(1, 1), padding=(1, 1))
            (1): ReLU(inplace=True)
            (2): Conv2d(32, 32, kernel_size=(3, 3), stride=(1, 1), padding=(1, 1))
          )
        )
        (4): HSPA(
          (conv_match1): BasicBlock(
            (0): Conv2d(32, 16, kernel_size=(1, 1), stride=(1, 1))
            (1): PReLU(num_parameters=1)
          )
          (conv_match2): BasicBlock(
            (0): Conv2d(32, 16, kernel_size=(1, 1), stride=(1, 1))
            (1): PReLU(num_parameters=1)
          )
          (conv_assembly): BasicBlock(
            (0): Conv2d(32, 32, kernel_size=(1, 1), stride=(1, 1))
            (1): PReLU(num_parameters=1)
          )
          (ST): SoftThresholdingOperation()
        )
        (5): Conv2d(32, 32, kernel_size=(3, 3), stride=(1, 1), padding=(1, 1))
      )
    )
    (1): HSPAM(
      (body): Sequential(
        (0): LEB(
          (body): Sequential(
            (0): Conv2d(32, 32, kernel_size=(3, 3), stride=(1, 1), padding=(1, 1))
            (1): ReLU(inplace=True)
            (2): Conv2d(32, 32, kernel_size=(3, 3), stride=(1, 1), padding=(1, 1))
          )
        )
        (1): LEB(
          (body): Sequential(
            (0): Conv2d(32, 32, kernel_size=(3, 3), stride=(1, 1), padding=(1, 1))
            (1): ReLU(inplace=True)
            (2): Conv2d(32, 32, kernel_size=(3, 3), stride=(1, 1), padding=(1, 1))
          )
        )
        (2): LEB(
          (body): Sequential(
            (0): Conv2d(32, 32, kernel_size=(3, 3), stride=(1, 1), padding=(1, 1))
            (1): ReLU(inplace=True)
            (2): Conv2d(32, 32, kernel_size=(3, 3), stride=(1, 1), padding=(1, 1))
          )
        )
        (3): LEB(
          (body): Sequential(
            (0): Conv2d(32, 32, kernel_size=(3, 3), stride=(1, 1), padding=(1, 1))
            (1): ReLU(inplace=True)
            (2): Conv2d(32, 32, kernel_size=(3, 3), stride=(1, 1), padding=(1, 1))
          )
        )
        (4): HSPA(
          (conv_match1): BasicBlock(
            (0): Conv2d(32, 16, kernel_size=(1, 1), stride=(1, 1))
            (1): PReLU(num_parameters=1)
          )
          (conv_match2): BasicBlock(
            (0): Conv2d(32, 16, kernel_size=(1, 1), stride=(1, 1))
            (1): PReLU(num_parameters=1)
          )
          (conv_assembly): BasicBlock(
            (0): Conv2d(32, 32, kernel_size=(1, 1), stride=(1, 1))
            (1): PReLU(num_parameters=1)
          )
          (ST): SoftThresholdingOperation()
        )
        (5): Conv2d(32, 32, kernel_size=(3, 3), stride=(1, 1), padding=(1, 1))
      )
    )
    (2): HSPAM(
      (body): Sequential(
        (0): LEB(
          (body): Sequential(
            (0): Conv2d(32, 32, kernel_size=(3, 3), stride=(1, 1), padding=(1, 1))
            (1): ReLU(inplace=True)
            (2): Conv2d(32, 32, kernel_size=(3, 3), stride=(1, 1), padding=(1, 1))
          )
        )
        (1): LEB(
          (body): Sequential(
            (0): Conv2d(32, 32, kernel_size=(3, 3), stride=(1, 1), padding=(1, 1))
            (1): ReLU(inplace=True)
            (2): Conv2d(32, 32, kernel_size=(3, 3), stride=(1, 1), padding=(1, 1))
          )
        )
        (2): LEB(
          (body): Sequential(
            (0): Conv2d(32, 32, kernel_size=(3, 3), stride=(1, 1), padding=(1, 1))
            (1): ReLU(inplace=True)
            (2): Conv2d(32, 32, kernel_size=(3, 3), stride=(1, 1), padding=(1, 1))
          )
        )
        (3): LEB(
          (body): Sequential(
            (0): Conv2d(32, 32, kernel_size=(3, 3), stride=(1, 1), padding=(1, 1))
            (1): ReLU(inplace=True)
            (2): Conv2d(32, 32, kernel_size=(3, 3), stride=(1, 1), padding=(1, 1))
          )
        )
        (4): HSPA(
          (conv_match1): BasicBlock(
            (0): Conv2d(32, 16, kernel_size=(1, 1), stride=(1, 1))
            (1): PReLU(num_parameters=1)
          )
          (conv_match2): BasicBlock(
            (0): Conv2d(32, 16, kernel_size=(1, 1), stride=(1, 1))
            (1): PReLU(num_parameters=1)
          )
          (conv_assembly): BasicBlock(
            (0): Conv2d(32, 32, kernel_size=(1, 1), stride=(1, 1))
            (1): PReLU(num_parameters=1)
          )
          (ST): SoftThresholdingOperation()
        )
        (5): Conv2d(32, 32, kernel_size=(3, 3), stride=(1, 1), padding=(1, 1))
      )
    )
    (3): HSPAM(
      (body): Sequential(
        (0): LEB(
          (body): Sequential(
            (0): Conv2d(32, 32, kernel_size=(3, 3), stride=(1, 1), padding=(1, 1))
            (1): ReLU(inplace=True)
            (2): Conv2d(32, 32, kernel_size=(3, 3), stride=(1, 1), padding=(1, 1))
          )
        )
        (1): LEB(
          (body): Sequential(
            (0): Conv2d(32, 32, kernel_size=(3, 3), stride=(1, 1), padding=(1, 1))
            (1): ReLU(inplace=True)
            (2): Conv2d(32, 32, kernel_size=(3, 3), stride=(1, 1), padding=(1, 1))
          )
        )
        (2): LEB(
          (body): Sequential(
            (0): Conv2d(32, 32, kernel_size=(3, 3), stride=(1, 1), padding=(1, 1))
            (1): ReLU(inplace=True)
            (2): Conv2d(32, 32, kernel_size=(3, 3), stride=(1, 1), padding=(1, 1))
          )
        )
        (3): LEB(
          (body): Sequential(
            (0): Conv2d(32, 32, kernel_size=(3, 3), stride=(1, 1), padding=(1, 1))
            (1): ReLU(inplace=True)
            (2): Conv2d(32, 32, kernel_size=(3, 3), stride=(1, 1), padding=(1, 1))
          )
        )
        (4): HSPA(
          (conv_match1): BasicBlock(
            (0): Conv2d(32, 16, kernel_size=(1, 1), stride=(1, 1))
            (1): PReLU(num_parameters=1)
          )
          (conv_match2): BasicBlock(
            (0): Conv2d(32, 16, kernel_size=(1, 1), stride=(1, 1))
            (1): PReLU(num_parameters=1)
          )
          (conv_assembly): BasicBlock(
            (0): Conv2d(32, 32, kernel_size=(1, 1), stride=(1, 1))
            (1): PReLU(num_parameters=1)
          )
          (ST): SoftThresholdingOperation()
        )
        (5): Conv2d(32, 32, kernel_size=(3, 3), stride=(1, 1), padding=(1, 1))
      )
    )
    (4): HSPAM(
      (body): Sequential(
        (0): LEB(
          (body): Sequential(
            (0): Conv2d(32, 32, kernel_size=(3, 3), stride=(1, 1), padding=(1, 1))
            (1): ReLU(inplace=True)
            (2): Conv2d(32, 32, kernel_size=(3, 3), stride=(1, 1), padding=(1, 1))
          )
        )
        (1): LEB(
          (body): Sequential(
            (0): Conv2d(32, 32, kernel_size=(3, 3), stride=(1, 1), padding=(1, 1))
            (1): ReLU(inplace=True)
            (2): Conv2d(32, 32, kernel_size=(3, 3), stride=(1, 1), padding=(1, 1))
          )
        )
        (2): LEB(
          (body): Sequential(
            (0): Conv2d(32, 32, kernel_size=(3, 3), stride=(1, 1), padding=(1, 1))
            (1): ReLU(inplace=True)
            (2): Conv2d(32, 32, kernel_size=(3, 3), stride=(1, 1), padding=(1, 1))
          )
        )
        (3): LEB(
          (body): Sequential(
            (0): Conv2d(32, 32, kernel_size=(3, 3), stride=(1, 1), padding=(1, 1))
            (1): ReLU(inplace=True)
            (2): Conv2d(32, 32, kernel_size=(3, 3), stride=(1, 1), padding=(1, 1))
          )
        )
        (4): HSPA(
          (conv_match1): BasicBlock(
            (0): Conv2d(32, 16, kernel_size=(1, 1), stride=(1, 1))
            (1): PReLU(num_parameters=1)
          )
          (conv_match2): BasicBlock(
            (0): Conv2d(32, 16, kernel_size=(1, 1), stride=(1, 1))
            (1): PReLU(num_parameters=1)
          )
          (conv_assembly): BasicBlock(
            (0): Conv2d(32, 32, kernel_size=(1, 1), stride=(1, 1))
            (1): PReLU(num_parameters=1)
          )
          (ST): SoftThresholdingOperation()
        )
        (5): Conv2d(32, 32, kernel_size=(3, 3), stride=(1, 1), padding=(1, 1))
      )
    )
    (5): HSPAM(
      (body): Sequential(
        (0): LEB(
          (body): Sequential(
            (0): Conv2d(32, 32, kernel_size=(3, 3), stride=(1, 1), padding=(1, 1))
            (1): ReLU(inplace=True)
            (2): Conv2d(32, 32, kernel_size=(3, 3), stride=(1, 1), padding=(1, 1))
          )
        )
        (1): LEB(
          (body): Sequential(
            (0): Conv2d(32, 32, kernel_size=(3, 3), stride=(1, 1), padding=(1, 1))
            (1): ReLU(inplace=True)
            (2): Conv2d(32, 32, kernel_size=(3, 3), stride=(1, 1), padding=(1, 1))
          )
        )
        (2): LEB(
          (body): Sequential(
            (0): Conv2d(32, 32, kernel_size=(3, 3), stride=(1, 1), padding=(1, 1))
            (1): ReLU(inplace=True)
            (2): Conv2d(32, 32, kernel_size=(3, 3), stride=(1, 1), padding=(1, 1))
          )
        )
        (3): LEB(
          (body): Sequential(
            (0): Conv2d(32, 32, kernel_size=(3, 3), stride=(1, 1), padding=(1, 1))
            (1): ReLU(inplace=True)
            (2): Conv2d(32, 32, kernel_size=(3, 3), stride=(1, 1), padding=(1, 1))
          )
        )
        (4): HSPA(
          (conv_match1): BasicBlock(
            (0): Conv2d(32, 16, kernel_size=(1, 1), stride=(1, 1))
            (1): PReLU(num_parameters=1)
          )
          (conv_match2): BasicBlock(
            (0): Conv2d(32, 16, kernel_size=(1, 1), stride=(1, 1))
            (1): PReLU(num_parameters=1)
          )
          (conv_assembly): BasicBlock(
            (0): Conv2d(32, 32, kernel_size=(1, 1), stride=(1, 1))
            (1): PReLU(num_parameters=1)
          )
          (ST): SoftThresholdingOperation()
        )
        (5): Conv2d(32, 32, kernel_size=(3, 3), stride=(1, 1), padding=(1, 1))
      )
    )
    (6): HSPAM(
      (body): Sequential(
        (0): LEB(
          (body): Sequential(
            (0): Conv2d(32, 32, kernel_size=(3, 3), stride=(1, 1), padding=(1, 1))
            (1): ReLU(inplace=True)
            (2): Conv2d(32, 32, kernel_size=(3, 3), stride=(1, 1), padding=(1, 1))
          )
        )
        (1): LEB(
          (body): Sequential(
            (0): Conv2d(32, 32, kernel_size=(3, 3), stride=(1, 1), padding=(1, 1))
            (1): ReLU(inplace=True)
            (2): Conv2d(32, 32, kernel_size=(3, 3), stride=(1, 1), padding=(1, 1))
          )
        )
        (2): LEB(
          (body): Sequential(
            (0): Conv2d(32, 32, kernel_size=(3, 3), stride=(1, 1), padding=(1, 1))
            (1): ReLU(inplace=True)
            (2): Conv2d(32, 32, kernel_size=(3, 3), stride=(1, 1), padding=(1, 1))
          )
        )
        (3): LEB(
          (body): Sequential(
            (0): Conv2d(32, 32, kernel_size=(3, 3), stride=(1, 1), padding=(1, 1))
            (1): ReLU(inplace=True)
            (2): Conv2d(32, 32, kernel_size=(3, 3), stride=(1, 1), padding=(1, 1))
          )
        )
        (4): HSPA(
          (conv_match1): BasicBlock(
            (0): Conv2d(32, 16, kernel_size=(1, 1), stride=(1, 1))
            (1): PReLU(num_parameters=1)
          )
          (conv_match2): BasicBlock(
            (0): Conv2d(32, 16, kernel_size=(1, 1), stride=(1, 1))
            (1): PReLU(num_parameters=1)
          )
          (conv_assembly): BasicBlock(
            (0): Conv2d(32, 32, kernel_size=(1, 1), stride=(1, 1))
            (1): PReLU(num_parameters=1)
          )
          (ST): SoftThresholdingOperation()
        )
        (5): Conv2d(32, 32, kernel_size=(3, 3), stride=(1, 1), padding=(1, 1))
      )
    )
    (7): HSPAM(
      (body): Sequential(
        (0): LEB(
          (body): Sequential(
            (0): Conv2d(32, 32, kernel_size=(3, 3), stride=(1, 1), padding=(1, 1))
            (1): ReLU(inplace=True)
            (2): Conv2d(32, 32, kernel_size=(3, 3), stride=(1, 1), padding=(1, 1))
          )
        )
        (1): LEB(
          (body): Sequential(
            (0): Conv2d(32, 32, kernel_size=(3, 3), stride=(1, 1), padding=(1, 1))
            (1): ReLU(inplace=True)
            (2): Conv2d(32, 32, kernel_size=(3, 3), stride=(1, 1), padding=(1, 1))
          )
        )
        (2): LEB(
          (body): Sequential(
            (0): Conv2d(32, 32, kernel_size=(3, 3), stride=(1, 1), padding=(1, 1))
            (1): ReLU(inplace=True)
            (2): Conv2d(32, 32, kernel_size=(3, 3), stride=(1, 1), padding=(1, 1))
          )
        )
        (3): LEB(
          (body): Sequential(
            (0): Conv2d(32, 32, kernel_size=(3, 3), stride=(1, 1), padding=(1, 1))
            (1): ReLU(inplace=True)
            (2): Conv2d(32, 32, kernel_size=(3, 3), stride=(1, 1), padding=(1, 1))
          )
        )
        (4): HSPA(
          (conv_match1): BasicBlock(
            (0): Conv2d(32, 16, kernel_size=(1, 1), stride=(1, 1))
            (1): PReLU(num_parameters=1)
          )
          (conv_match2): BasicBlock(
            (0): Conv2d(32, 16, kernel_size=(1, 1), stride=(1, 1))
            (1): PReLU(num_parameters=1)
          )
          (conv_assembly): BasicBlock(
            (0): Conv2d(32, 32, kernel_size=(1, 1), stride=(1, 1))
            (1): PReLU(num_parameters=1)
          )
          (ST): SoftThresholdingOperation()
        )
        (5): Conv2d(32, 32, kernel_size=(3, 3), stride=(1, 1), padding=(1, 1))
      )
    )
    (8): HSPAM(
      (body): Sequential(
        (0): LEB(
          (body): Sequential(
            (0): Conv2d(32, 32, kernel_size=(3, 3), stride=(1, 1), padding=(1, 1))
            (1): ReLU(inplace=True)
            (2): Conv2d(32, 32, kernel_size=(3, 3), stride=(1, 1), padding=(1, 1))
          )
        )
        (1): LEB(
          (body): Sequential(
            (0): Conv2d(32, 32, kernel_size=(3, 3), stride=(1, 1), padding=(1, 1))
            (1): ReLU(inplace=True)
            (2): Conv2d(32, 32, kernel_size=(3, 3), stride=(1, 1), padding=(1, 1))
          )
        )
        (2): LEB(
          (body): Sequential(
            (0): Conv2d(32, 32, kernel_size=(3, 3), stride=(1, 1), padding=(1, 1))
            (1): ReLU(inplace=True)
            (2): Conv2d(32, 32, kernel_size=(3, 3), stride=(1, 1), padding=(1, 1))
          )
        )
        (3): LEB(
          (body): Sequential(
            (0): Conv2d(32, 32, kernel_size=(3, 3), stride=(1, 1), padding=(1, 1))
            (1): ReLU(inplace=True)
            (2): Conv2d(32, 32, kernel_size=(3, 3), stride=(1, 1), padding=(1, 1))
          )
        )
        (4): HSPA(
          (conv_match1): BasicBlock(
            (0): Conv2d(32, 16, kernel_size=(1, 1), stride=(1, 1))
            (1): PReLU(num_parameters=1)
          )
          (conv_match2): BasicBlock(
            (0): Conv2d(32, 16, kernel_size=(1, 1), stride=(1, 1))
            (1): PReLU(num_parameters=1)
          )
          (conv_assembly): BasicBlock(
            (0): Conv2d(32, 32, kernel_size=(1, 1), stride=(1, 1))
            (1): PReLU(num_parameters=1)
          )
          (ST): SoftThresholdingOperation()
        )
        (5): Conv2d(32, 32, kernel_size=(3, 3), stride=(1, 1), padding=(1, 1))
      )
    )
    (9): HSPAM(
      (body): Sequential(
        (0): LEB(
          (body): Sequential(
            (0): Conv2d(32, 32, kernel_size=(3, 3), stride=(1, 1), padding=(1, 1))
            (1): ReLU(inplace=True)
            (2): Conv2d(32, 32, kernel_size=(3, 3), stride=(1, 1), padding=(1, 1))
          )
        )
        (1): LEB(
          (body): Sequential(
            (0): Conv2d(32, 32, kernel_size=(3, 3), stride=(1, 1), padding=(1, 1))
            (1): ReLU(inplace=True)
            (2): Conv2d(32, 32, kernel_size=(3, 3), stride=(1, 1), padding=(1, 1))
          )
        )
        (2): LEB(
          (body): Sequential(
            (0): Conv2d(32, 32, kernel_size=(3, 3), stride=(1, 1), padding=(1, 1))
            (1): ReLU(inplace=True)
            (2): Conv2d(32, 32, kernel_size=(3, 3), stride=(1, 1), padding=(1, 1))
          )
        )
        (3): LEB(
          (body): Sequential(
            (0): Conv2d(32, 32, kernel_size=(3, 3), stride=(1, 1), padding=(1, 1))
            (1): ReLU(inplace=True)
            (2): Conv2d(32, 32, kernel_size=(3, 3), stride=(1, 1), padding=(1, 1))
          )
        )
        (4): HSPA(
          (conv_match1): BasicBlock(
            (0): Conv2d(32, 16, kernel_size=(1, 1), stride=(1, 1))
            (1): PReLU(num_parameters=1)
          )
          (conv_match2): BasicBlock(
            (0): Conv2d(32, 16, kernel_size=(1, 1), stride=(1, 1))
            (1): PReLU(num_parameters=1)
          )
          (conv_assembly): BasicBlock(
            (0): Conv2d(32, 32, kernel_size=(1, 1), stride=(1, 1))
            (1): PReLU(num_parameters=1)
          )
          (ST): SoftThresholdingOperation()
        )
        (5): Conv2d(32, 32, kernel_size=(3, 3), stride=(1, 1), padding=(1, 1))
      )
    )
    (10): Conv2d(32, 32, kernel_size=(3, 3), stride=(1, 1), padding=(1, 1))
  )
  (tail): Sequential(
    (0): Upsampler(
      (0): Conv2d(32, 128, kernel_size=(3, 3), stride=(1, 1), padding=(1, 1))
      (1): PixelShuffle(upscale_factor=2)
      (2): Conv2d(32, 128, kernel_size=(3, 3), stride=(1, 1), padding=(1, 1))
      (3): PixelShuffle(upscale_factor=2)
    )
    (1): Conv2d(32, 3, kernel_size=(3, 3), stride=(1, 1), padding=(1, 1))
  )
)

Evaluation:
HSPAN(
  (sub_mean): MeanShift(3, 3, kernel_size=(1, 1), stride=(1, 1))
  (add_mean): MeanShift(3, 3, kernel_size=(1, 1), stride=(1, 1))
  (head): Sequential(
    (0): Conv2d(3, 32, kernel_size=(3, 3), stride=(1, 1), padding=(1, 1))
  )
  (body): Sequential(
    (0): HSPAM(
      (body): Sequential(
        (0): LEB(
          (body): Sequential(
            (0): Conv2d(32, 32, kernel_size=(3, 3), stride=(1, 1), padding=(1, 1))
            (1): ReLU(inplace=True)
            (2): Conv2d(32, 32, kernel_size=(3, 3), stride=(1, 1), padding=(1, 1))
          )
        )
        (1): LEB(
          (body): Sequential(
            (0): Conv2d(32, 32, kernel_size=(3, 3), stride=(1, 1), padding=(1, 1))
            (1): ReLU(inplace=True)
            (2): Conv2d(32, 32, kernel_size=(3, 3), stride=(1, 1), padding=(1, 1))
          )
        )
        (2): LEB(
          (body): Sequential(
            (0): Conv2d(32, 32, kernel_size=(3, 3), stride=(1, 1), padding=(1, 1))
            (1): ReLU(inplace=True)
            (2): Conv2d(32, 32, kernel_size=(3, 3), stride=(1, 1), padding=(1, 1))
          )
        )
        (3): LEB(
          (body): Sequential(
            (0): Conv2d(32, 32, kernel_size=(3, 3), stride=(1, 1), padding=(1, 1))
            (1): ReLU(inplace=True)
            (2): Conv2d(32, 32, kernel_size=(3, 3), stride=(1, 1), padding=(1, 1))
          )
        )
        (4): HSPA(
          (conv_match1): BasicBlock(
            (0): Conv2d(32, 16, kernel_size=(1, 1), stride=(1, 1))
            (1): PReLU(num_parameters=1)
          )
          (conv_match2): BasicBlock(
            (0): Conv2d(32, 16, kernel_size=(1, 1), stride=(1, 1))
            (1): PReLU(num_parameters=1)
          )
          (conv_assembly): BasicBlock(
            (0): Conv2d(32, 32, kernel_size=(1, 1), stride=(1, 1))
            (1): PReLU(num_parameters=1)
          )
          (ST): SoftThresholdingOperation()
        )
        (5): Conv2d(32, 32, kernel_size=(3, 3), stride=(1, 1), padding=(1, 1))
      )
    )
    (1): HSPAM(
      (body): Sequential(
        (0): LEB(
          (body): Sequential(
            (0): Conv2d(32, 32, kernel_size=(3, 3), stride=(1, 1), padding=(1, 1))
            (1): ReLU(inplace=True)
            (2): Conv2d(32, 32, kernel_size=(3, 3), stride=(1, 1), padding=(1, 1))
          )
        )
        (1): LEB(
          (body): Sequential(
            (0): Conv2d(32, 32, kernel_size=(3, 3), stride=(1, 1), padding=(1, 1))
            (1): ReLU(inplace=True)
            (2): Conv2d(32, 32, kernel_size=(3, 3), stride=(1, 1), padding=(1, 1))
          )
        )
        (2): LEB(
          (body): Sequential(
            (0): Conv2d(32, 32, kernel_size=(3, 3), stride=(1, 1), padding=(1, 1))
            (1): ReLU(inplace=True)
            (2): Conv2d(32, 32, kernel_size=(3, 3), stride=(1, 1), padding=(1, 1))
          )
        )
        (3): LEB(
          (body): Sequential(
            (0): Conv2d(32, 32, kernel_size=(3, 3), stride=(1, 1), padding=(1, 1))
            (1): ReLU(inplace=True)
            (2): Conv2d(32, 32, kernel_size=(3, 3), stride=(1, 1), padding=(1, 1))
          )
        )
        (4): HSPA(
          (conv_match1): BasicBlock(
            (0): Conv2d(32, 16, kernel_size=(1, 1), stride=(1, 1))
            (1): PReLU(num_parameters=1)
          )
          (conv_match2): BasicBlock(
            (0): Conv2d(32, 16, kernel_size=(1, 1), stride=(1, 1))
            (1): PReLU(num_parameters=1)
          )
          (conv_assembly): BasicBlock(
            (0): Conv2d(32, 32, kernel_size=(1, 1), stride=(1, 1))
            (1): PReLU(num_parameters=1)
          )
          (ST): SoftThresholdingOperation()
        )
        (5): Conv2d(32, 32, kernel_size=(3, 3), stride=(1, 1), padding=(1, 1))
      )
    )
    (2): HSPAM(
      (body): Sequential(
        (0): LEB(
          (body): Sequential(
            (0): Conv2d(32, 32, kernel_size=(3, 3), stride=(1, 1), padding=(1, 1))
            (1): ReLU(inplace=True)
            (2): Conv2d(32, 32, kernel_size=(3, 3), stride=(1, 1), padding=(1, 1))
          )
        )
        (1): LEB(
          (body): Sequential(
            (0): Conv2d(32, 32, kernel_size=(3, 3), stride=(1, 1), padding=(1, 1))
            (1): ReLU(inplace=True)
            (2): Conv2d(32, 32, kernel_size=(3, 3), stride=(1, 1), padding=(1, 1))
          )
        )
        (2): LEB(
          (body): Sequential(
            (0): Conv2d(32, 32, kernel_size=(3, 3), stride=(1, 1), padding=(1, 1))
            (1): ReLU(inplace=True)
            (2): Conv2d(32, 32, kernel_size=(3, 3), stride=(1, 1), padding=(1, 1))
          )
        )
        (3): LEB(
          (body): Sequential(
            (0): Conv2d(32, 32, kernel_size=(3, 3), stride=(1, 1), padding=(1, 1))
            (1): ReLU(inplace=True)
            (2): Conv2d(32, 32, kernel_size=(3, 3), stride=(1, 1), padding=(1, 1))
          )
        )
        (4): HSPA(
          (conv_match1): BasicBlock(
            (0): Conv2d(32, 16, kernel_size=(1, 1), stride=(1, 1))
            (1): PReLU(num_parameters=1)
          )
          (conv_match2): BasicBlock(
            (0): Conv2d(32, 16, kernel_size=(1, 1), stride=(1, 1))
            (1): PReLU(num_parameters=1)
          )
          (conv_assembly): BasicBlock(
            (0): Conv2d(32, 32, kernel_size=(1, 1), stride=(1, 1))
            (1): PReLU(num_parameters=1)
          )
          (ST): SoftThresholdingOperation()
        )
        (5): Conv2d(32, 32, kernel_size=(3, 3), stride=(1, 1), padding=(1, 1))
      )
    )
    (3): HSPAM(
      (body): Sequential(
        (0): LEB(
          (body): Sequential(
            (0): Conv2d(32, 32, kernel_size=(3, 3), stride=(1, 1), padding=(1, 1))
            (1): ReLU(inplace=True)
            (2): Conv2d(32, 32, kernel_size=(3, 3), stride=(1, 1), padding=(1, 1))
          )
        )
        (1): LEB(
          (body): Sequential(
            (0): Conv2d(32, 32, kernel_size=(3, 3), stride=(1, 1), padding=(1, 1))
            (1): ReLU(inplace=True)
            (2): Conv2d(32, 32, kernel_size=(3, 3), stride=(1, 1), padding=(1, 1))
          )
        )
        (2): LEB(
          (body): Sequential(
            (0): Conv2d(32, 32, kernel_size=(3, 3), stride=(1, 1), padding=(1, 1))
            (1): ReLU(inplace=True)
            (2): Conv2d(32, 32, kernel_size=(3, 3), stride=(1, 1), padding=(1, 1))
          )
        )
        (3): LEB(
          (body): Sequential(
            (0): Conv2d(32, 32, kernel_size=(3, 3), stride=(1, 1), padding=(1, 1))
            (1): ReLU(inplace=True)
            (2): Conv2d(32, 32, kernel_size=(3, 3), stride=(1, 1), padding=(1, 1))
          )
        )
        (4): HSPA(
          (conv_match1): BasicBlock(
            (0): Conv2d(32, 16, kernel_size=(1, 1), stride=(1, 1))
            (1): PReLU(num_parameters=1)
          )
          (conv_match2): BasicBlock(
            (0): Conv2d(32, 16, kernel_size=(1, 1), stride=(1, 1))
            (1): PReLU(num_parameters=1)
          )
          (conv_assembly): BasicBlock(
            (0): Conv2d(32, 32, kernel_size=(1, 1), stride=(1, 1))
            (1): PReLU(num_parameters=1)
          )
          (ST): SoftThresholdingOperation()
        )
        (5): Conv2d(32, 32, kernel_size=(3, 3), stride=(1, 1), padding=(1, 1))
      )
    )
    (4): HSPAM(
      (body): Sequential(
        (0): LEB(
          (body): Sequential(
            (0): Conv2d(32, 32, kernel_size=(3, 3), stride=(1, 1), padding=(1, 1))
            (1): ReLU(inplace=True)
            (2): Conv2d(32, 32, kernel_size=(3, 3), stride=(1, 1), padding=(1, 1))
          )
        )
        (1): LEB(
          (body): Sequential(
            (0): Conv2d(32, 32, kernel_size=(3, 3), stride=(1, 1), padding=(1, 1))
            (1): ReLU(inplace=True)
            (2): Conv2d(32, 32, kernel_size=(3, 3), stride=(1, 1), padding=(1, 1))
          )
        )
        (2): LEB(
          (body): Sequential(
            (0): Conv2d(32, 32, kernel_size=(3, 3), stride=(1, 1), padding=(1, 1))
            (1): ReLU(inplace=True)
            (2): Conv2d(32, 32, kernel_size=(3, 3), stride=(1, 1), padding=(1, 1))
          )
        )
        (3): LEB(
          (body): Sequential(
            (0): Conv2d(32, 32, kernel_size=(3, 3), stride=(1, 1), padding=(1, 1))
            (1): ReLU(inplace=True)
            (2): Conv2d(32, 32, kernel_size=(3, 3), stride=(1, 1), padding=(1, 1))
          )
        )
        (4): HSPA(
          (conv_match1): BasicBlock(
            (0): Conv2d(32, 16, kernel_size=(1, 1), stride=(1, 1))
            (1): PReLU(num_parameters=1)
          )
          (conv_match2): BasicBlock(
            (0): Conv2d(32, 16, kernel_size=(1, 1), stride=(1, 1))
            (1): PReLU(num_parameters=1)
          )
          (conv_assembly): BasicBlock(
            (0): Conv2d(32, 32, kernel_size=(1, 1), stride=(1, 1))
            (1): PReLU(num_parameters=1)
          )
          (ST): SoftThresholdingOperation()
        )
        (5): Conv2d(32, 32, kernel_size=(3, 3), stride=(1, 1), padding=(1, 1))
      )
    )
    (5): HSPAM(
      (body): Sequential(
        (0): LEB(
          (body): Sequential(
            (0): Conv2d(32, 32, kernel_size=(3, 3), stride=(1, 1), padding=(1, 1))
            (1): ReLU(inplace=True)
            (2): Conv2d(32, 32, kernel_size=(3, 3), stride=(1, 1), padding=(1, 1))
          )
        )
        (1): LEB(
          (body): Sequential(
            (0): Conv2d(32, 32, kernel_size=(3, 3), stride=(1, 1), padding=(1, 1))
            (1): ReLU(inplace=True)
            (2): Conv2d(32, 32, kernel_size=(3, 3), stride=(1, 1), padding=(1, 1))
          )
        )
        (2): LEB(
          (body): Sequential(
            (0): Conv2d(32, 32, kernel_size=(3, 3), stride=(1, 1), padding=(1, 1))
            (1): ReLU(inplace=True)
            (2): Conv2d(32, 32, kernel_size=(3, 3), stride=(1, 1), padding=(1, 1))
          )
        )
        (3): LEB(
          (body): Sequential(
            (0): Conv2d(32, 32, kernel_size=(3, 3), stride=(1, 1), padding=(1, 1))
            (1): ReLU(inplace=True)
            (2): Conv2d(32, 32, kernel_size=(3, 3), stride=(1, 1), padding=(1, 1))
          )
        )
        (4): HSPA(
          (conv_match1): BasicBlock(
            (0): Conv2d(32, 16, kernel_size=(1, 1), stride=(1, 1))
            (1): PReLU(num_parameters=1)
          )
          (conv_match2): BasicBlock(
            (0): Conv2d(32, 16, kernel_size=(1, 1), stride=(1, 1))
            (1): PReLU(num_parameters=1)
          )
          (conv_assembly): BasicBlock(
            (0): Conv2d(32, 32, kernel_size=(1, 1), stride=(1, 1))
            (1): PReLU(num_parameters=1)
          )
          (ST): SoftThresholdingOperation()
        )
        (5): Conv2d(32, 32, kernel_size=(3, 3), stride=(1, 1), padding=(1, 1))
      )
    )
    (6): HSPAM(
      (body): Sequential(
        (0): LEB(
          (body): Sequential(
            (0): Conv2d(32, 32, kernel_size=(3, 3), stride=(1, 1), padding=(1, 1))
            (1): ReLU(inplace=True)
            (2): Conv2d(32, 32, kernel_size=(3, 3), stride=(1, 1), padding=(1, 1))
          )
        )
        (1): LEB(
          (body): Sequential(
            (0): Conv2d(32, 32, kernel_size=(3, 3), stride=(1, 1), padding=(1, 1))
            (1): ReLU(inplace=True)
            (2): Conv2d(32, 32, kernel_size=(3, 3), stride=(1, 1), padding=(1, 1))
          )
        )
        (2): LEB(
          (body): Sequential(
            (0): Conv2d(32, 32, kernel_size=(3, 3), stride=(1, 1), padding=(1, 1))
            (1): ReLU(inplace=True)
            (2): Conv2d(32, 32, kernel_size=(3, 3), stride=(1, 1), padding=(1, 1))
          )
        )
        (3): LEB(
          (body): Sequential(
            (0): Conv2d(32, 32, kernel_size=(3, 3), stride=(1, 1), padding=(1, 1))
            (1): ReLU(inplace=True)
            (2): Conv2d(32, 32, kernel_size=(3, 3), stride=(1, 1), padding=(1, 1))
          )
        )
        (4): HSPA(
          (conv_match1): BasicBlock(
            (0): Conv2d(32, 16, kernel_size=(1, 1), stride=(1, 1))
            (1): PReLU(num_parameters=1)
          )
          (conv_match2): BasicBlock(
            (0): Conv2d(32, 16, kernel_size=(1, 1), stride=(1, 1))
            (1): PReLU(num_parameters=1)
          )
          (conv_assembly): BasicBlock(
            (0): Conv2d(32, 32, kernel_size=(1, 1), stride=(1, 1))
            (1): PReLU(num_parameters=1)
          )
          (ST): SoftThresholdingOperation()
        )
        (5): Conv2d(32, 32, kernel_size=(3, 3), stride=(1, 1), padding=(1, 1))
      )
    )
    (7): HSPAM(
      (body): Sequential(
        (0): LEB(
          (body): Sequential(
            (0): Conv2d(32, 32, kernel_size=(3, 3), stride=(1, 1), padding=(1, 1))
            (1): ReLU(inplace=True)
            (2): Conv2d(32, 32, kernel_size=(3, 3), stride=(1, 1), padding=(1, 1))
          )
        )
        (1): LEB(
          (body): Sequential(
            (0): Conv2d(32, 32, kernel_size=(3, 3), stride=(1, 1), padding=(1, 1))
            (1): ReLU(inplace=True)
            (2): Conv2d(32, 32, kernel_size=(3, 3), stride=(1, 1), padding=(1, 1))
          )
        )
        (2): LEB(
          (body): Sequential(
            (0): Conv2d(32, 32, kernel_size=(3, 3), stride=(1, 1), padding=(1, 1))
            (1): ReLU(inplace=True)
            (2): Conv2d(32, 32, kernel_size=(3, 3), stride=(1, 1), padding=(1, 1))
          )
        )
        (3): LEB(
          (body): Sequential(
            (0): Conv2d(32, 32, kernel_size=(3, 3), stride=(1, 1), padding=(1, 1))
            (1): ReLU(inplace=True)
            (2): Conv2d(32, 32, kernel_size=(3, 3), stride=(1, 1), padding=(1, 1))
          )
        )
        (4): HSPA(
          (conv_match1): BasicBlock(
            (0): Conv2d(32, 16, kernel_size=(1, 1), stride=(1, 1))
            (1): PReLU(num_parameters=1)
          )
          (conv_match2): BasicBlock(
            (0): Conv2d(32, 16, kernel_size=(1, 1), stride=(1, 1))
            (1): PReLU(num_parameters=1)
          )
          (conv_assembly): BasicBlock(
            (0): Conv2d(32, 32, kernel_size=(1, 1), stride=(1, 1))
            (1): PReLU(num_parameters=1)
          )
          (ST): SoftThresholdingOperation()
        )
        (5): Conv2d(32, 32, kernel_size=(3, 3), stride=(1, 1), padding=(1, 1))
      )
    )
    (8): HSPAM(
      (body): Sequential(
        (0): LEB(
          (body): Sequential(
            (0): Conv2d(32, 32, kernel_size=(3, 3), stride=(1, 1), padding=(1, 1))
            (1): ReLU(inplace=True)
            (2): Conv2d(32, 32, kernel_size=(3, 3), stride=(1, 1), padding=(1, 1))
          )
        )
        (1): LEB(
          (body): Sequential(
            (0): Conv2d(32, 32, kernel_size=(3, 3), stride=(1, 1), padding=(1, 1))
            (1): ReLU(inplace=True)
            (2): Conv2d(32, 32, kernel_size=(3, 3), stride=(1, 1), padding=(1, 1))
          )
        )
        (2): LEB(
          (body): Sequential(
            (0): Conv2d(32, 32, kernel_size=(3, 3), stride=(1, 1), padding=(1, 1))
            (1): ReLU(inplace=True)
            (2): Conv2d(32, 32, kernel_size=(3, 3), stride=(1, 1), padding=(1, 1))
          )
        )
        (3): LEB(
          (body): Sequential(
            (0): Conv2d(32, 32, kernel_size=(3, 3), stride=(1, 1), padding=(1, 1))
            (1): ReLU(inplace=True)
            (2): Conv2d(32, 32, kernel_size=(3, 3), stride=(1, 1), padding=(1, 1))
          )
        )
        (4): HSPA(
          (conv_match1): BasicBlock(
            (0): Conv2d(32, 16, kernel_size=(1, 1), stride=(1, 1))
            (1): PReLU(num_parameters=1)
          )
          (conv_match2): BasicBlock(
            (0): Conv2d(32, 16, kernel_size=(1, 1), stride=(1, 1))
            (1): PReLU(num_parameters=1)
          )
          (conv_assembly): BasicBlock(
            (0): Conv2d(32, 32, kernel_size=(1, 1), stride=(1, 1))
            (1): PReLU(num_parameters=1)
          )
          (ST): SoftThresholdingOperation()
        )
        (5): Conv2d(32, 32, kernel_size=(3, 3), stride=(1, 1), padding=(1, 1))
      )
    )
    (9): HSPAM(
      (body): Sequential(
        (0): LEB(
          (body): Sequential(
            (0): Conv2d(32, 32, kernel_size=(3, 3), stride=(1, 1), padding=(1, 1))
            (1): ReLU(inplace=True)
            (2): Conv2d(32, 32, kernel_size=(3, 3), stride=(1, 1), padding=(1, 1))
          )
        )
        (1): LEB(
          (body): Sequential(
            (0): Conv2d(32, 32, kernel_size=(3, 3), stride=(1, 1), padding=(1, 1))
            (1): ReLU(inplace=True)
            (2): Conv2d(32, 32, kernel_size=(3, 3), stride=(1, 1), padding=(1, 1))
          )
        )
        (2): LEB(
          (body): Sequential(
            (0): Conv2d(32, 32, kernel_size=(3, 3), stride=(1, 1), padding=(1, 1))
            (1): ReLU(inplace=True)
            (2): Conv2d(32, 32, kernel_size=(3, 3), stride=(1, 1), padding=(1, 1))
          )
        )
        (3): LEB(
          (body): Sequential(
            (0): Conv2d(32, 32, kernel_size=(3, 3), stride=(1, 1), padding=(1, 1))
            (1): ReLU(inplace=True)
            (2): Conv2d(32, 32, kernel_size=(3, 3), stride=(1, 1), padding=(1, 1))
          )
        )
        (4): HSPA(
          (conv_match1): BasicBlock(
            (0): Conv2d(32, 16, kernel_size=(1, 1), stride=(1, 1))
            (1): PReLU(num_parameters=1)
          )
          (conv_match2): BasicBlock(
            (0): Conv2d(32, 16, kernel_size=(1, 1), stride=(1, 1))
            (1): PReLU(num_parameters=1)
          )
          (conv_assembly): BasicBlock(
            (0): Conv2d(32, 32, kernel_size=(1, 1), stride=(1, 1))
            (1): PReLU(num_parameters=1)
          )
          (ST): SoftThresholdingOperation()
        )
        (5): Conv2d(32, 32, kernel_size=(3, 3), stride=(1, 1), padding=(1, 1))
      )
    )
    (10): Conv2d(32, 32, kernel_size=(3, 3), stride=(1, 1), padding=(1, 1))
  )
  (tail): Sequential(
    (0): Upsampler(
      (0): Conv2d(32, 128, kernel_size=(3, 3), stride=(1, 1), padding=(1, 1))
      (1): PixelShuffle(upscale_factor=2)
      (2): Conv2d(32, 128, kernel_size=(3, 3), stride=(1, 1), padding=(1, 1))
      (3): PixelShuffle(upscale_factor=2)
    )
    (1): Conv2d(32, 3, kernel_size=(3, 3), stride=(1, 1), padding=(1, 1))
  )
)

Evaluation:
HSPAN(
  (sub_mean): MeanShift(3, 3, kernel_size=(1, 1), stride=(1, 1))
  (add_mean): MeanShift(3, 3, kernel_size=(1, 1), stride=(1, 1))
  (head): Sequential(
    (0): Conv2d(3, 16, kernel_size=(3, 3), stride=(1, 1), padding=(1, 1))
  )
  (body): Sequential(
    (0): HSPAM(
      (body): Sequential(
        (0): LEB(
          (body): Sequential(
            (0): Conv2d(16, 16, kernel_size=(3, 3), stride=(1, 1), padding=(1, 1))
            (1): ReLU(inplace=True)
            (2): Conv2d(16, 16, kernel_size=(3, 3), stride=(1, 1), padding=(1, 1))
          )
        )
        (1): LEB(
          (body): Sequential(
            (0): Conv2d(16, 16, kernel_size=(3, 3), stride=(1, 1), padding=(1, 1))
            (1): ReLU(inplace=True)
            (2): Conv2d(16, 16, kernel_size=(3, 3), stride=(1, 1), padding=(1, 1))
          )
        )
        (2): LEB(
          (body): Sequential(
            (0): Conv2d(16, 16, kernel_size=(3, 3), stride=(1, 1), padding=(1, 1))
            (1): ReLU(inplace=True)
            (2): Conv2d(16, 16, kernel_size=(3, 3), stride=(1, 1), padding=(1, 1))
          )
        )
        (3): LEB(
          (body): Sequential(
            (0): Conv2d(16, 16, kernel_size=(3, 3), stride=(1, 1), padding=(1, 1))
…
            (2): Conv2d(8, 8, kernel_size=(3, 3), stride=(1, 1), padding=(1, 1))
          )
        )
        (1): HSPA(
          (conv_match1): BasicBlock(
            (0): Conv2d(8, 2, kernel_size=(1, 1), stride=(1, 1))
            (1): PReLU(num_parameters=1)
          )
          (conv_match2): BasicBlock(
            (0): Conv2d(8, 2, kernel_size=(1, 1), stride=(1, 1))
            (1): PReLU(num_parameters=1)
          )
          (conv_assembly): BasicBlock(
            (0): Conv2d(8, 8, kernel_size=(1, 1), stride=(1, 1))
            (1): PReLU(num_parameters=1)
          )
          (ST): SoftThresholdingOperation()
        )
        (2): Conv2d(8, 8, kernel_size=(3, 3), stride=(1, 1), padding=(1, 1))
      )
    )
    (1): HSPAM(
      (body): Sequential(
        (0): LEB(
          (body): Sequential(
            (0): Conv2d(8, 8, kernel_size=(3, 3), stride=(1, 1), padding=(1, 1))
            (1): ReLU(inplace=True)
            (2): Conv2d(8, 8, kernel_size=(3, 3), stride=(1, 1), padding=(1, 1))
          )
        )
        (1): HSPA(
          (conv_match1): BasicBlock(
            (0): Conv2d(8, 2, kernel_size=(1, 1), stride=(1, 1))
            (1): PReLU(num_parameters=1)
          )
          (conv_match2): BasicBlock(
            (0): Conv2d(8, 2, kernel_size=(1, 1), stride=(1, 1))
            (1): PReLU(num_parameters=1)
          )
          (conv_assembly): BasicBlock(
            (0): Conv2d(8, 8, kernel_size=(1, 1), stride=(1, 1))
            (1): PReLU(num_parameters=1)
          )
          (ST): SoftThresholdingOperation()
        )
        (2): Conv2d(8, 8, kernel_size=(3, 3), stride=(1, 1), padding=(1, 1))
      )
    )
    (2): Conv2d(8, 8, kernel_size=(3, 3), stride=(1, 1), padding=(1, 1))
  )
  (tail): Sequential(
    (0): Upsampler(
      (0): Conv2d(8, 32, kernel_size=(3, 3), stride=(1, 1), padding=(1, 1))
      (1): PixelShuffle(upscale_factor=2)
      (2): Conv2d(8, 32, kernel_size=(3, 3), stride=(1, 1), padding=(1, 1))
      (3): PixelShuffle(upscale_factor=2)
    )
    (1): Conv2d(8, 3, kernel_size=(3, 3), stride=(1, 1), padding=(1, 1))
  )
)

Evaluation:
HSPAN(
  (sub_mean): MeanShift(3, 3, kernel_size=(1, 1), stride=(1, 1))
  (add_mean): MeanShift(3, 3, kernel_size=(1, 1), stride=(1, 1))
  (head): Sequential(
    (0): Conv2d(3, 8, kernel_size=(3, 3), stride=(1, 1), padding=(1, 1))
  )
  (body): Sequential(
    (0): HSPAM(
      (body): Sequential(
        (0): LEB(
          (body): Sequential(
            (0): Conv2d(8, 8, kernel_size=(3, 3), stride=(1, 1), padding=(1, 1))
            (1): ReLU(inplace=True)
            (2): Conv2d(8, 8, kernel_size=(3, 3), stride=(1, 1), padding=(1, 1))
          )
        )
        (1): HSPA(
          (conv_match1): BasicBlock(
            (0): Conv2d(8, 2, kernel_size=(1, 1), stride=(1, 1))
            (1): PReLU(num_parameters=1)
          )
          (conv_match2): BasicBlock(
            (0): Conv2d(8, 2, kernel_size=(1, 1), stride=(1, 1))
            (1): PReLU(num_parameters=1)
          )
          (conv_assembly): BasicBlock(
            (0): Conv2d(8, 8, kernel_size=(1, 1), stride=(1, 1))
            (1): PReLU(num_parameters=1)
          )
          (ST): SoftThresholdingOperation()
        )
        (2): Conv2d(8, 8, kernel_size=(3, 3), stride=(1, 1), padding=(1, 1))
      )
    )
    (1): HSPAM(
      (body): Sequential(
        (0): LEB(
          (body): Sequential(
            (0): Conv2d(8, 8, kernel_size=(3, 3), stride=(1, 1), padding=(1, 1))
            (1): ReLU(inplace=True)
            (2): Conv2d(8, 8, kernel_size=(3, 3), stride=(1, 1), padding=(1, 1))
          )
        )
        (1): HSPA(
          (conv_match1): BasicBlock(
            (0): Conv2d(8, 2, kernel_size=(1, 1), stride=(1, 1))
            (1): PReLU(num_parameters=1)
          )
          (conv_match2): BasicBlock(
            (0): Conv2d(8, 2, kernel_size=(1, 1), stride=(1, 1))
            (1): PReLU(num_parameters=1)
          )
          (conv_assembly): BasicBlock(
            (0): Conv2d(8, 8, kernel_size=(1, 1), stride=(1, 1))
            (1): PReLU(num_parameters=1)
          )
          (ST): SoftThresholdingOperation()
        )
        (2): Conv2d(8, 8, kernel_size=(3, 3), stride=(1, 1), padding=(1, 1))
      )
    )
    (2): Conv2d(8, 8, kernel_size=(3, 3), stride=(1, 1), padding=(1, 1))
  )
  (tail): Sequential(
    (0): Upsampler(
      (0): Conv2d(8, 32, kernel_size=(3, 3), stride=(1, 1), padding=(1, 1))
      (1): PixelShuffle(upscale_factor=2)
      (2): Conv2d(8, 32, kernel_size=(3, 3), stride=(1, 1), padding=(1, 1))
      (3): PixelShuffle(upscale_factor=2)
    )
    (1): Conv2d(8, 3, kernel_size=(3, 3), stride=(1, 1), padding=(1, 1))
  )
)

Evaluation:
HSPAN(
  (sub_mean): MeanShift(3, 3, kernel_size=(1, 1), stride=(1, 1))
  (add_mean): MeanShift(3, 3, kernel_size=(1, 1), stride=(1, 1))
  (head): Sequential(
    (0): Conv2d(3, 8, kernel_size=(3, 3), stride=(1, 1), padding=(1, 1))
  )
  (body): Sequential(
    (0): HSPAM(
      (body): Sequential(
        (0): LEB(
          (body): Sequential(
            (0): Conv2d(8, 8, kernel_size=(3, 3), stride=(1, 1), padding=(1, 1))
            (1): ReLU(inplace=True)
            (2): Conv2d(8, 8, kernel_size=(3, 3), stride=(1, 1), padding=(1, 1))
          )
        )
        (1): HSPA(
          (conv_match1): BasicBlock(
            (0): Conv2d(8, 2, kernel_size=(1, 1), stride=(1, 1))
            (1): PReLU(num_parameters=1)
          )
          (conv_match2): BasicBlock(
            (0): Conv2d(8, 2, kernel_size=(1, 1), stride=(1, 1))
            (1): PReLU(num_parameters=1)
          )
          (conv_assembly): BasicBlock(
            (0): Conv2d(8, 8, kernel_size=(1, 1), stride=(1, 1))
            (1): PReLU(num_parameters=1)
          )
          (ST): SoftThresholdingOperation()
        )
        (2): Conv2d(8, 8, kernel_size=(3, 3), stride=(1, 1), padding=(1, 1))
      )
    )
    (1): HSPAM(
      (body): Sequential(
        (0): LEB(
          (body): Sequential(
            (0): Conv2d(8, 8, kernel_size=(3, 3), stride=(1, 1), padding=(1, 1))
            (1): ReLU(inplace=True)
            (2): Conv2d(8, 8, kernel_size=(3, 3), stride=(1, 1), padding=(1, 1))
          )
        )
        (1): HSPA(
          (conv_match1): BasicBlock(
            (0): Conv2d(8, 2, kernel_size=(1, 1), stride=(1, 1))
            (1): PReLU(num_parameters=1)
          )
          (conv_match2): BasicBlock(
            (0): Conv2d(8, 2, kernel_size=(1, 1), stride=(1, 1))
            (1): PReLU(num_parameters=1)
          )
          (conv_assembly): BasicBlock(
            (0): Conv2d(8, 8, kernel_size=(1, 1), stride=(1, 1))
            (1): PReLU(num_parameters=1)
          )
          (ST): SoftThresholdingOperation()
        )
        (2): Conv2d(8, 8, kernel_size=(3, 3), stride=(1, 1), padding=(1, 1))
      )
    )
    (2): Conv2d(8, 8, kernel_size=(3, 3), stride=(1, 1), padding=(1, 1))
  )
  (tail): Sequential(
    (0): Upsampler(
      (0): Conv2d(8, 32, kernel_size=(3, 3), stride=(1, 1), padding=(1, 1))
      (1): PixelShuffle(upscale_factor=2)
      (2): Conv2d(8, 32, kernel_size=(3, 3), stride=(1, 1), padding=(1, 1))
      (3): PixelShuffle(upscale_factor=2)
    )
    (1): Conv2d(8, 3, kernel_size=(3, 3), stride=(1, 1), padding=(1, 1))
  )
)

Evaluation:
HSPAN(
  (sub_mean): MeanShift(3, 3, kernel_size=(1, 1), stride=(1, 1))
  (add_mean): MeanShift(3, 3, kernel_size=(1, 1), stride=(1, 1))
  (head): Sequential(
    (0): Conv2d(3, 8, kernel_size=(3, 3), stride=(1, 1), padding=(1, 1))
  )
  (body): Sequential(
    (0): HSPAM(
      (body): Sequential(
        (0): LEB(
          (body): Sequential(
            (0): Conv2d(8, 8, kernel_size=(3, 3), stride=(1, 1), padding=(1, 1))
            (1): ReLU(inplace=True)
            (2): Conv2d(8, 8, kernel_size=(3, 3), stride=(1, 1), padding=(1, 1))
          )
        )
        (1): HSPA(
          (conv_match1): BasicBlock(
            (0): Conv2d(8, 2, kernel_size=(1, 1), stride=(1, 1))
            (1): PReLU(num_parameters=1)
          )
          (conv_match2): BasicBlock(
            (0): Conv2d(8, 2, kernel_size=(1, 1), stride=(1, 1))
            (1): PReLU(num_parameters=1)
          )
          (conv_assembly): BasicBlock(
            (0): Conv2d(8, 8, kernel_size=(1, 1), stride=(1, 1))
            (1): PReLU(num_parameters=1)
          )
          (ST): SoftThresholdingOperation()
        )
        (2): Conv2d(8, 8, kernel_size=(3, 3), stride=(1, 1), padding=(1, 1))
      )
    )
    (1): HSPAM(
      (body): Sequential(
        (0): LEB(
          (body): Sequential(
            (0): Conv2d(8, 8, kernel_size=(3, 3), stride=(1, 1), padding=(1, 1))
            (1): ReLU(inplace=True)
            (2): Conv2d(8, 8, kernel_size=(3, 3), stride=(1, 1), padding=(1, 1))
          )
        )
        (1): HSPA(
          (conv_match1): BasicBlock(
            (0): Conv2d(8, 2, kernel_size=(1, 1), stride=(1, 1))
            (1): PReLU(num_parameters=1)
          )
          (conv_match2): BasicBlock(
            (0): Conv2d(8, 2, kernel_size=(1, 1), stride=(1, 1))
            (1): PReLU(num_parameters=1)
          )
          (conv_assembly): BasicBlock(
            (0): Conv2d(8, 8, kernel_size=(1, 1), stride=(1, 1))
            (1): PReLU(num_parameters=1)
          )
          (ST): SoftThresholdingOperation()
        )
        (2): Conv2d(8, 8, kernel_size=(3, 3), stride=(1, 1), padding=(1, 1))
      )
    )
    (2): Conv2d(8, 8, kernel_size=(3, 3), stride=(1, 1), padding=(1, 1))
  )
  (tail): Sequential(
    (0): Upsampler(
      (0): Conv2d(8, 32, kernel_size=(3, 3), stride=(1, 1), padding=(1, 1))
      (1): PixelShuffle(upscale_factor=2)
      (2): Conv2d(8, 32, kernel_size=(3, 3), stride=(1, 1), padding=(1, 1))
      (3): PixelShuffle(upscale_factor=2)
    )
    (1): Conv2d(8, 3, kernel_size=(3, 3), stride=(1, 1), padding=(1, 1))
  )
)

Evaluation:
HSPAN(
  (sub_mean): MeanShift(3, 3, kernel_size=(1, 1), stride=(1, 1))
  (add_mean): MeanShift(3, 3, kernel_size=(1, 1), stride=(1, 1))
  (head): Sequential(
    (0): Conv2d(3, 8, kernel_size=(3, 3), stride=(1, 1), padding=(1, 1))
  )
  (body): Sequential(
    (0): HSPAM(
      (body): Sequential(
        (0): LEB(
          (body): Sequential(
            (0): Conv2d(8, 8, kernel_size=(3, 3), stride=(1, 1), padding=(1, 1))
            (1): ReLU(inplace=True)
            (2): Conv2d(8, 8, kernel_size=(3, 3), stride=(1, 1), padding=(1, 1))
          )
        )
        (1): HSPA(
          (conv_match1): BasicBlock(
            (0): Conv2d(8, 2, kernel_size=(1, 1), stride=(1, 1))
            (1): PReLU(num_parameters=1)
          )
          (conv_match2): BasicBlock(
            (0): Conv2d(8, 2, kernel_size=(1, 1), stride=(1, 1))
            (1): PReLU(num_parameters=1)
          )
          (conv_assembly): BasicBlock(
            (0): Conv2d(8, 8, kernel_size=(1, 1), stride=(1, 1))
            (1): PReLU(num_parameters=1)
          )
          (ST): SoftThresholdingOperation()
        )
        (2): Conv2d(8, 8, kernel_size=(3, 3), stride=(1, 1), padding=(1, 1))
      )
    )
    (1): HSPAM(
      (body): Sequential(
        (0): LEB(
          (body): Sequential(
            (0): Conv2d(8, 8, kernel_size=(3, 3), stride=(1, 1), padding=(1, 1))
            (1): ReLU(inplace=True)
            (2): Conv2d(8, 8, kernel_size=(3, 3), stride=(1, 1), padding=(1, 1))
          )
        )
        (1): HSPA(
          (conv_match1): BasicBlock(
            (0): Conv2d(8, 2, kernel_size=(1, 1), stride=(1, 1))
            (1): PReLU(num_parameters=1)
          )
          (conv_match2): BasicBlock(
            (0): Conv2d(8, 2, kernel_size=(1, 1), stride=(1, 1))
            (1): PReLU(num_parameters=1)
          )
          (conv_assembly): BasicBlock(
            (0): Conv2d(8, 8, kernel_size=(1, 1), stride=(1, 1))
            (1): PReLU(num_parameters=1)
          )
          (ST): SoftThresholdingOperation()
        )
        (2): Conv2d(8, 8, kernel_size=(3, 3), stride=(1, 1), padding=(1, 1))
      )
    )
    (2): Conv2d(8, 8, kernel_size=(3, 3), stride=(1, 1), padding=(1, 1))
  )
  (tail): Sequential(
    (0): Upsampler(
      (0): Conv2d(8, 32, kernel_size=(3, 3), stride=(1, 1), padding=(1, 1))
      (1): PixelShuffle(upscale_factor=2)
      (2): Conv2d(8, 32, kernel_size=(3, 3), stride=(1, 1), padding=(1, 1))
      (3): PixelShuffle(upscale_factor=2)
    )
    (1): Conv2d(8, 3, kernel_size=(3, 3), stride=(1, 1), padding=(1, 1))
  )
)

Evaluation:
[Set5 x4]	PSNR: 7.7431 (Best: 7.7431 @epoch 1)
Forward: 3.89s

Saving...
Total: 3.89s

HSPAN(
  (sub_mean): MeanShift(3, 3, kernel_size=(1, 1), stride=(1, 1))
  (add_mean): MeanShift(3, 3, kernel_size=(1, 1), stride=(1, 1))
  (head): Sequential(
    (0): Conv2d(3, 192, kernel_size=(3, 3), stride=(1, 1), padding=(1, 1))
  )
  (body): Sequential(
    (0): HSPAM(
      (body): Sequential(
        (0): LEB(
          (body): Sequential(
            (0): Conv2d(192, 192, kernel_size=(3, 3), stride=(1, 1), padding=(1, 1))
            (1): ReLU(inplace=True)
            (2): Conv2d(192, 192, kernel_size=(3, 3), stride=(1, 1), padding=(1, 1))
          )
        )
        (1): LEB(
          (body): Sequential(
            (0): Conv2d(192, 192, kernel_size=(3, 3), stride=(1, 1), padding=(1, 1))
            (1): ReLU(inplace=True)
            (2): Conv2d(192, 192, kernel_size=(3, 3), stride=(1, 1), padding=(1, 1))
          )
        )
        (2): LEB(
          (body): Sequential(
            (0): Conv2d(192, 192, kernel_size=(3, 3), stride=(1, 1), padding=(1, 1))
            (1): ReLU(inplace=True)
            (2): Conv2d(192, 192, kernel_size=(3, 3), stride=(1, 1), padding=(1, 1))
          )
        )
        (3): LEB(
          (body): Sequential(
            (0): Conv2d(192, 192, kernel_size=(3, 3), stride=(1, 1), padding=(1, 1))
            (1): ReLU(inplace=True)
            (2): Conv2d(192, 192, kernel_size=(3, 3), stride=(1, 1), padding=(1, 1))
          )
        )
        (4): HSPA(
          (conv_match1): BasicBlock(
            (0): Conv2d(192, 96, kernel_size=(1, 1), stride=(1, 1))
            (1): PReLU(num_parameters=1)
          )
          (conv_match2): BasicBlock(
            (0): Conv2d(192, 96, kernel_size=(1, 1), stride=(1, 1))
            (1): PReLU(num_parameters=1)
          )
          (conv_assembly): BasicBlock(
            (0): Conv2d(192, 192, kernel_size=(1, 1), stride=(1, 1))
            (1): PReLU(num_parameters=1)
          )
          (ST): SoftThresholdingOperation()
        )
        (5): Conv2d(192, 192, kernel_size=(3, 3), stride=(1, 1), padding=(1, 1))
      )
    )
    (1): HSPAM(
      (body): Sequential(
        (0): LEB(
          (body): Sequential(
            (0): Conv2d(192, 192, kernel_size=(3, 3), stride=(1, 1), padding=(1, 1))
            (1): ReLU(inplace=True)
            (2): Conv2d(192, 192, kernel_size=(3, 3), stride=(1, 1), padding=(1, 1))
          )
        )
        (1): LEB(
          (body): Sequential(
            (0): Conv2d(192, 192, kernel_size=(3, 3), stride=(1, 1), padding=(1, 1))
            (1): ReLU(inplace=True)
            (2): Conv2d(192, 192, kernel_size=(3, 3), stride=(1, 1), padding=(1, 1))
          )
        )
        (2): LEB(
          (body): Sequential(
            (0): Conv2d(192, 192, kernel_size=(3, 3), stride=(1, 1), padding=(1, 1))
            (1): ReLU(inplace=True)
            (2): Conv2d(192, 192, kernel_size=(3, 3), stride=(1, 1), padding=(1, 1))
          )
        )
        (3): LEB(
          (body): Sequential(
            (0): Conv2d(192, 192, kernel_size=(3, 3), stride=(1, 1), padding=(1, 1))
            (1): ReLU(inplace=True)
            (2): Conv2d(192, 192, kernel_size=(3, 3), stride=(1, 1), padding=(1, 1))
          )
        )
        (4): HSPA(
          (conv_match1): BasicBlock(
            (0): Conv2d(192, 96, kernel_size=(1, 1), stride=(1, 1))
            (1): PReLU(num_parameters=1)
          )
          (conv_match2): BasicBlock(
            (0): Conv2d(192, 96, kernel_size=(1, 1), stride=(1, 1))
            (1): PReLU(num_parameters=1)
          )
          (conv_assembly): BasicBlock(
            (0): Conv2d(192, 192, kernel_size=(1, 1), stride=(1, 1))
            (1): PReLU(num_parameters=1)
          )
          (ST): SoftThresholdingOperation()
        )
        (5): Conv2d(192, 192, kernel_size=(3, 3), stride=(1, 1), padding=(1, 1))
      )
    )
    (2): HSPAM(
      (body): Sequential(
        (0): LEB(
          (body): Sequential(
            (0): Conv2d(192, 192, kernel_size=(3, 3), stride=(1, 1), padding=(1, 1))
            (1): ReLU(inplace=True)
            (2): Conv2d(192, 192, kernel_size=(3, 3), stride=(1, 1), padding=(1, 1))
          )
        )
        (1): LEB(
          (body): Sequential(
            (0): Conv2d(192, 192, kernel_size=(3, 3), stride=(1, 1), padding=(1, 1))
            (1): ReLU(inplace=True)
            (2): Conv2d(192, 192, kernel_size=(3, 3), stride=(1, 1), padding=(1, 1))
          )
        )
        (2): LEB(
          (body): Sequential(
            (0): Conv2d(192, 192, kernel_size=(3, 3), stride=(1, 1), padding=(1, 1))
            (1): ReLU(inplace=True)
            (2): Conv2d(192, 192, kernel_size=(3, 3), stride=(1, 1), padding=(1, 1))
          )
        )
        (3): LEB(
          (body): Sequential(
            (0): Conv2d(192, 192, kernel_size=(3, 3), stride=(1, 1), padding=(1, 1))
            (1): ReLU(inplace=True)
            (2): Conv2d(192, 192, kernel_size=(3, 3), stride=(1, 1), padding=(1, 1))
          )
        )
        (4): HSPA(
          (conv_match1): BasicBlock(
            (0): Conv2d(192, 96, kernel_size=(1, 1), stride=(1, 1))
            (1): PReLU(num_parameters=1)
          )
          (conv_match2): BasicBlock(
            (0): Conv2d(192, 96, kernel_size=(1, 1), stride=(1, 1))
            (1): PReLU(num_parameters=1)
          )
          (conv_assembly): BasicBlock(
            (0): Conv2d(192, 192, kernel_size=(1, 1), stride=(1, 1))
            (1): PReLU(num_parameters=1)
          )
          (ST): SoftThresholdingOperation()
        )
        (5): Conv2d(192, 192, kernel_size=(3, 3), stride=(1, 1), padding=(1, 1))
      )
    )
    (3): HSPAM(
      (body): Sequential(
        (0): LEB(
          (body): Sequential(
            (0): Conv2d(192, 192, kernel_size=(3, 3), stride=(1, 1), padding=(1, 1))
            (1): ReLU(inplace=True)
            (2): Conv2d(192, 192, kernel_size=(3, 3), stride=(1, 1), padding=(1, 1))
          )
        )
        (1): LEB(
          (body): Sequential(
            (0): Conv2d(192, 192, kernel_size=(3, 3), stride=(1, 1), padding=(1, 1))
            (1): ReLU(inplace=True)
            (2): Conv2d(192, 192, kernel_size=(3, 3), stride=(1, 1), padding=(1, 1))
          )
        )
        (2): LEB(
          (body): Sequential(
            (0): Conv2d(192, 192, kernel_size=(3, 3), stride=(1, 1), padding=(1, 1))
            (1): ReLU(inplace=True)
            (2): Conv2d(192, 192, kernel_size=(3, 3), stride=(1, 1), padding=(1, 1))
          )
        )
        (3): LEB(
          (body): Sequential(
            (0): Conv2d(192, 192, kernel_size=(3, 3), stride=(1, 1), padding=(1, 1))
            (1): ReLU(inplace=True)
            (2): Conv2d(192, 192, kernel_size=(3, 3), stride=(1, 1), padding=(1, 1))
          )
        )
        (4): HSPA(
          (conv_match1): BasicBlock(
            (0): Conv2d(192, 96, kernel_size=(1, 1), stride=(1, 1))
            (1): PReLU(num_parameters=1)
          )
          (conv_match2): BasicBlock(
            (0): Conv2d(192, 96, kernel_size=(1, 1), stride=(1, 1))
            (1): PReLU(num_parameters=1)
          )
          (conv_assembly): BasicBlock(
            (0): Conv2d(192, 192, kernel_size=(1, 1), stride=(1, 1))
            (1): PReLU(num_parameters=1)
          )
          (ST): SoftThresholdingOperation()
        )
        (5): Conv2d(192, 192, kernel_size=(3, 3), stride=(1, 1), padding=(1, 1))
      )
    )
    (4): HSPAM(
      (body): Sequential(
        (0): LEB(
          (body): Sequential(
            (0): Conv2d(192, 192, kernel_size=(3, 3), stride=(1, 1), padding=(1, 1))
            (1): ReLU(inplace=True)
            (2): Conv2d(192, 192, kernel_size=(3, 3), stride=(1, 1), padding=(1, 1))
          )
        )
        (1): LEB(
          (body): Sequential(
            (0): Conv2d(192, 192, kernel_size=(3, 3), stride=(1, 1), padding=(1, 1))
            (1): ReLU(inplace=True)
            (2): Conv2d(192, 192, kernel_size=(3, 3), stride=(1, 1), padding=(1, 1))
          )
        )
        (2): LEB(
          (body): Sequential(
            (0): Conv2d(192, 192, kernel_size=(3, 3), stride=(1, 1), padding=(1, 1))
            (1): ReLU(inplace=True)
            (2): Conv2d(192, 192, kernel_size=(3, 3), stride=(1, 1), padding=(1, 1))
          )
        )
        (3): LEB(
          (body): Sequential(
            (0): Conv2d(192, 192, kernel_size=(3, 3), stride=(1, 1), padding=(1, 1))
            (1): ReLU(inplace=True)
            (2): Conv2d(192, 192, kernel_size=(3, 3), stride=(1, 1), padding=(1, 1))
          )
        )
        (4): HSPA(
          (conv_match1): BasicBlock(
            (0): Conv2d(192, 96, kernel_size=(1, 1), stride=(1, 1))
            (1): PReLU(num_parameters=1)
          )
          (conv_match2): BasicBlock(
            (0): Conv2d(192, 96, kernel_size=(1, 1), stride=(1, 1))
            (1): PReLU(num_parameters=1)
          )
          (conv_assembly): BasicBlock(
            (0): Conv2d(192, 192, kernel_size=(1, 1), stride=(1, 1))
            (1): PReLU(num_parameters=1)
          )
          (ST): SoftThresholdingOperation()
        )
        (5): Conv2d(192, 192, kernel_size=(3, 3), stride=(1, 1), padding=(1, 1))
      )
    )
    (5): HSPAM(
      (body): Sequential(
        (0): LEB(
          (body): Sequential(
            (0): Conv2d(192, 192, kernel_size=(3, 3), stride=(1, 1), padding=(1, 1))
            (1): ReLU(inplace=True)
            (2): Conv2d(192, 192, kernel_size=(3, 3), stride=(1, 1), padding=(1, 1))
          )
        )
        (1): LEB(
          (body): Sequential(
            (0): Conv2d(192, 192, kernel_size=(3, 3), stride=(1, 1), padding=(1, 1))
            (1): ReLU(inplace=True)
            (2): Conv2d(192, 192, kernel_size=(3, 3), stride=(1, 1), padding=(1, 1))
          )
        )
        (2): LEB(
          (body): Sequential(
            (0): Conv2d(192, 192, kernel_size=(3, 3), stride=(1, 1), padding=(1, 1))
            (1): ReLU(inplace=True)
            (2): Conv2d(192, 192, kernel_size=(3, 3), stride=(1, 1), padding=(1, 1))
          )
        )
        (3): LEB(
          (body): Sequential(
            (0): Conv2d(192, 192, kernel_size=(3, 3), stride=(1, 1), padding=(1, 1))
            (1): ReLU(inplace=True)
            (2): Conv2d(192, 192, kernel_size=(3, 3), stride=(1, 1), padding=(1, 1))
          )
        )
        (4): HSPA(
          (conv_match1): BasicBlock(
            (0): Conv2d(192, 96, kernel_size=(1, 1), stride=(1, 1))
            (1): PReLU(num_parameters=1)
          )
          (conv_match2): BasicBlock(
            (0): Conv2d(192, 96, kernel_size=(1, 1), stride=(1, 1))
            (1): PReLU(num_parameters=1)
          )
          (conv_assembly): BasicBlock(
            (0): Conv2d(192, 192, kernel_size=(1, 1), stride=(1, 1))
            (1): PReLU(num_parameters=1)
          )
          (ST): SoftThresholdingOperation()
        )
        (5): Conv2d(192, 192, kernel_size=(3, 3), stride=(1, 1), padding=(1, 1))
      )
    )
    (6): HSPAM(
      (body): Sequential(
        (0): LEB(
          (body): Sequential(
            (0): Conv2d(192, 192, kernel_size=(3, 3), stride=(1, 1), padding=(1, 1))
            (1): ReLU(inplace=True)
            (2): Conv2d(192, 192, kernel_size=(3, 3), stride=(1, 1), padding=(1, 1))
          )
        )
        (1): LEB(
          (body): Sequential(
            (0): Conv2d(192, 192, kernel_size=(3, 3), stride=(1, 1), padding=(1, 1))
            (1): ReLU(inplace=True)
            (2): Conv2d(192, 192, kernel_size=(3, 3), stride=(1, 1), padding=(1, 1))
          )
        )
        (2): LEB(
          (body): Sequential(
            (0): Conv2d(192, 192, kernel_size=(3, 3), stride=(1, 1), padding=(1, 1))
            (1): ReLU(inplace=True)
            (2): Conv2d(192, 192, kernel_size=(3, 3), stride=(1, 1), padding=(1, 1))
          )
        )
        (3): LEB(
          (body): Sequential(
            (0): Conv2d(192, 192, kernel_size=(3, 3), stride=(1, 1), padding=(1, 1))
            (1): ReLU(inplace=True)
            (2): Conv2d(192, 192, kernel_size=(3, 3), stride=(1, 1), padding=(1, 1))
          )
        )
        (4): HSPA(
          (conv_match1): BasicBlock(
            (0): Conv2d(192, 96, kernel_size=(1, 1), stride=(1, 1))
            (1): PReLU(num_parameters=1)
          )
          (conv_match2): BasicBlock(
            (0): Conv2d(192, 96, kernel_size=(1, 1), stride=(1, 1))
            (1): PReLU(num_parameters=1)
          )
          (conv_assembly): BasicBlock(
            (0): Conv2d(192, 192, kernel_size=(1, 1), stride=(1, 1))
            (1): PReLU(num_parameters=1)
          )
          (ST): SoftThresholdingOperation()
        )
        (5): Conv2d(192, 192, kernel_size=(3, 3), stride=(1, 1), padding=(1, 1))
      )
    )
    (7): HSPAM(
      (body): Sequential(
        (0): LEB(
          (body): Sequential(
            (0): Conv2d(192, 192, kernel_size=(3, 3), stride=(1, 1), padding=(1, 1))
            (1): ReLU(inplace=True)
            (2): Conv2d(192, 192, kernel_size=(3, 3), stride=(1, 1), padding=(1, 1))
          )
        )
        (1): LEB(
          (body): Sequential(
            (0): Conv2d(192, 192, kernel_size=(3, 3), stride=(1, 1), padding=(1, 1))
            (1): ReLU(inplace=True)
            (2): Conv2d(192, 192, kernel_size=(3, 3), stride=(1, 1), padding=(1, 1))
          )
        )
        (2): LEB(
          (body): Sequential(
            (0): Conv2d(192, 192, kernel_size=(3, 3), stride=(1, 1), padding=(1, 1))
            (1): ReLU(inplace=True)
            (2): Conv2d(192, 192, kernel_size=(3, 3), stride=(1, 1), padding=(1, 1))
          )
        )
        (3): LEB(
          (body): Sequential(
            (0): Conv2d(192, 192, kernel_size=(3, 3), stride=(1, 1), padding=(1, 1))
            (1): ReLU(inplace=True)
            (2): Conv2d(192, 192, kernel_size=(3, 3), stride=(1, 1), padding=(1, 1))
          )
        )
        (4): HSPA(
          (conv_match1): BasicBlock(
            (0): Conv2d(192, 96, kernel_size=(1, 1), stride=(1, 1))
            (1): PReLU(num_parameters=1)
          )
          (conv_match2): BasicBlock(
            (0): Conv2d(192, 96, kernel_size=(1, 1), stride=(1, 1))
            (1): PReLU(num_parameters=1)
          )
          (conv_assembly): BasicBlock(
            (0): Conv2d(192, 192, kernel_size=(1, 1), stride=(1, 1))
            (1): PReLU(num_parameters=1)
          )
          (ST): SoftThresholdingOperation()
        )
        (5): Conv2d(192, 192, kernel_size=(3, 3), stride=(1, 1), padding=(1, 1))
      )
    )
    (8): HSPAM(
      (body): Sequential(
        (0): LEB(
          (body): Sequential(
            (0): Conv2d(192, 192, kernel_size=(3, 3), stride=(1, 1), padding=(1, 1))
            (1): ReLU(inplace=True)
            (2): Conv2d(192, 192, kernel_size=(3, 3), stride=(1, 1), padding=(1, 1))
          )
        )
        (1): LEB(
          (body): Sequential(
            (0): Conv2d(192, 192, kernel_size=(3, 3), stride=(1, 1), padding=(1, 1))
            (1): ReLU(inplace=True)
            (2): Conv2d(192, 192, kernel_size=(3, 3), stride=(1, 1), padding=(1, 1))
          )
        )
        (2): LEB(
          (body): Sequential(
            (0): Conv2d(192, 192, kernel_size=(3, 3), stride=(1, 1), padding=(1, 1))
            (1): ReLU(inplace=True)
            (2): Conv2d(192, 192, kernel_size=(3, 3), stride=(1, 1), padding=(1, 1))
          )
        )
        (3): LEB(
          (body): Sequential(
            (0): Conv2d(192, 192, kernel_size=(3, 3), stride=(1, 1), padding=(1, 1))
            (1): ReLU(inplace=True)
            (2): Conv2d(192, 192, kernel_size=(3, 3), stride=(1, 1), padding=(1, 1))
          )
        )
        (4): HSPA(
          (conv_match1): BasicBlock(
            (0): Conv2d(192, 96, kernel_size=(1, 1), stride=(1, 1))
            (1): PReLU(num_parameters=1)
          )
          (conv_match2): BasicBlock(
            (0): Conv2d(192, 96, kernel_size=(1, 1), stride=(1, 1))
            (1): PReLU(num_parameters=1)
          )
          (conv_assembly): BasicBlock(
            (0): Conv2d(192, 192, kernel_size=(1, 1), stride=(1, 1))
            (1): PReLU(num_parameters=1)
          )
          (ST): SoftThresholdingOperation()
        )
        (5): Conv2d(192, 192, kernel_size=(3, 3), stride=(1, 1), padding=(1, 1))
      )
    )
    (9): HSPAM(
      (body): Sequential(
        (0): LEB(
          (body): Sequential(
            (0): Conv2d(192, 192, kernel_size=(3, 3), stride=(1, 1), padding=(1, 1))
            (1): ReLU(inplace=True)
            (2): Conv2d(192, 192, kernel_size=(3, 3), stride=(1, 1), padding=(1, 1))
          )
        )
        (1): LEB(
          (body): Sequential(
            (0): Conv2d(192, 192, kernel_size=(3, 3), stride=(1, 1), padding=(1, 1))
            (1): ReLU(inplace=True)
            (2): Conv2d(192, 192, kernel_size=(3, 3), stride=(1, 1), padding=(1, 1))
          )
        )
        (2): LEB(
          (body): Sequential(
            (0): Conv2d(192, 192, kernel_size=(3, 3), stride=(1, 1), padding=(1, 1))
            (1): ReLU(inplace=True)
            (2): Conv2d(192, 192, kernel_size=(3, 3), stride=(1, 1), padding=(1, 1))
          )
        )
        (3): LEB(
          (body): Sequential(
            (0): Conv2d(192, 192, kernel_size=(3, 3), stride=(1, 1), padding=(1, 1))
            (1): ReLU(inplace=True)
            (2): Conv2d(192, 192, kernel_size=(3, 3), stride=(1, 1), padding=(1, 1))
          )
        )
        (4): HSPA(
          (conv_match1): BasicBlock(
            (0): Conv2d(192, 96, kernel_size=(1, 1), stride=(1, 1))
            (1): PReLU(num_parameters=1)
          )
          (conv_match2): BasicBlock(
            (0): Conv2d(192, 96, kernel_size=(1, 1), stride=(1, 1))
            (1): PReLU(num_parameters=1)
          )
          (conv_assembly): BasicBlock(
            (0): Conv2d(192, 192, kernel_size=(1, 1), stride=(1, 1))
            (1): PReLU(num_parameters=1)
          )
          (ST): SoftThresholdingOperation()
        )
        (5): Conv2d(192, 192, kernel_size=(3, 3), stride=(1, 1), padding=(1, 1))
      )
    )
    (10): Conv2d(192, 192, kernel_size=(3, 3), stride=(1, 1), padding=(1, 1))
  )
  (tail): Sequential(
    (0): Upsampler(
      (0): Conv2d(192, 768, kernel_size=(3, 3), stride=(1, 1), padding=(1, 1))
      (1): PixelShuffle(upscale_factor=2)
      (2): Conv2d(192, 768, kernel_size=(3, 3), stride=(1, 1), padding=(1, 1))
      (3): PixelShuffle(upscale_factor=2)
    )
    (1): Conv2d(192, 3, kernel_size=(3, 3), stride=(1, 1), padding=(1, 1))
  )
)

Evaluation:
[Set5 x4]	PSNR: 31.8601 (Best: 31.8601 @epoch 1)
Forward: 27.83s

Saving...
Total: 27.83s

HSPAN(
  (sub_mean): MeanShift(3, 3, kernel_size=(1, 1), stride=(1, 1))
  (add_mean): MeanShift(3, 3, kernel_size=(1, 1), stride=(1, 1))
  (head): Sequential(
    (0): Conv2d(3, 192, kernel_size=(3, 3), stride=(1, 1), padding=(1, 1))
  )
  (body): Sequential(
    (0): HSPAM(
      (body): Sequential(
        (0): LEB(
          (body): Sequential(
            (0): Conv2d(192, 192, kernel_size=(3, 3), stride=(1, 1), padding=(1, 1))
            (1): ReLU(inplace=True)
            (2): Conv2d(192, 192, kernel_size=(3, 3), stride=(1, 1), padding=(1, 1))
          )
        )
        (1): LEB(
          (body): Sequential(
            (0): Conv2d(192, 192, kernel_size=(3, 3), stride=(1, 1), padding=(1, 1))
            (1): ReLU(inplace=True)
            (2): Conv2d(192, 192, kernel_size=(3, 3), stride=(1, 1), padding=(1, 1))
          )
        )
        (2): LEB(
          (body): Sequential(
            (0): Conv2d(192, 192, kernel_size=(3, 3), stride=(1, 1), padding=(1, 1))
            (1): ReLU(inplace=True)
            (2): Conv2d(192, 192, kernel_size=(3, 3), stride=(1, 1), padding=(1, 1))
          )
        )
        (3): LEB(
          (body): Sequential(
            (0): Conv2d(192, 192, kernel_size=(3, 3), stride=(1, 1), padding=(1, 1))
            (1): ReLU(inplace=True)
            (2): Conv2d(192, 192, kernel_size=(3, 3), stride=(1, 1), padding=(1, 1))
          )
        )
        (4): HSPA(
          (conv_match1): BasicBlock(
            (0): Conv2d(192, 96, kernel_size=(1, 1), stride=(1, 1))
            (1): PReLU(num_parameters=1)
          )
          (conv_match2): BasicBlock(
            (0): Conv2d(192, 96, kernel_size=(1, 1), stride=(1, 1))
            (1): PReLU(num_parameters=1)
          )
          (conv_assembly): BasicBlock(
            (0): Conv2d(192, 192, kernel_size=(1, 1), stride=(1, 1))
            (1): PReLU(num_parameters=1)
          )
          (ST): SoftThresholdingOperation()
        )
        (5): Conv2d(192, 192, kernel_size=(3, 3), stride=(1, 1), padding=(1, 1))
      )
    )
    (1): HSPAM(
      (body): Sequential(
        (0): LEB(
          (body): Sequential(
            (0): Conv2d(192, 192, kernel_size=(3, 3), stride=(1, 1), padding=(1, 1))
            (1): ReLU(inplace=True)
            (2): Conv2d(192, 192, kernel_size=(3, 3), stride=(1, 1), padding=(1, 1))
          )
        )
        (1): LEB(
          (body): Sequential(
            (0): Conv2d(192, 192, kernel_size=(3, 3), stride=(1, 1), padding=(1, 1))
            (1): ReLU(inplace=True)
            (2): Conv2d(192, 192, kernel_size=(3, 3), stride=(1, 1), padding=(1, 1))
          )
        )
        (2): LEB(
          (body): Sequential(
            (0): Conv2d(192, 192, kernel_size=(3, 3), stride=(1, 1), padding=(1, 1))
            (1): ReLU(inplace=True)
            (2): Conv2d(192, 192, kernel_size=(3, 3), stride=(1, 1), padding=(1, 1))
          )
        )
        (3): LEB(
          (body): Sequential(
            (0): Conv2d(192, 192, kernel_size=(3, 3), stride=(1, 1), padding=(1, 1))
            (1): ReLU(inplace=True)
            (2): Conv2d(192, 192, kernel_size=(3, 3), stride=(1, 1), padding=(1, 1))
          )
        )
        (4): HSPA(
          (conv_match1): BasicBlock(
            (0): Conv2d(192, 96, kernel_size=(1, 1), stride=(1, 1))
            (1): PReLU(num_parameters=1)
          )
          (conv_match2): BasicBlock(
            (0): Conv2d(192, 96, kernel_size=(1, 1), stride=(1, 1))
            (1): PReLU(num_parameters=1)
          )
          (conv_assembly): BasicBlock(
            (0): Conv2d(192, 192, kernel_size=(1, 1), stride=(1, 1))
            (1): PReLU(num_parameters=1)
          )
          (ST): SoftThresholdingOperation()
        )
        (5): Conv2d(192, 192, kernel_size=(3, 3), stride=(1, 1), padding=(1, 1))
      )
    )
    (2): HSPAM(
      (body): Sequential(
        (0): LEB(
          (body): Sequential(
            (0): Conv2d(192, 192, kernel_size=(3, 3), stride=(1, 1), padding=(1, 1))
            (1): ReLU(inplace=True)
            (2): Conv2d(192, 192, kernel_size=(3, 3), stride=(1, 1), padding=(1, 1))
          )
        )
        (1): LEB(
          (body): Sequential(
            (0): Conv2d(192, 192, kernel_size=(3, 3), stride=(1, 1), padding=(1, 1))
            (1): ReLU(inplace=True)
            (2): Conv2d(192, 192, kernel_size=(3, 3), stride=(1, 1), padding=(1, 1))
          )
        )
        (2): LEB(
          (body): Sequential(
            (0): Conv2d(192, 192, kernel_size=(3, 3), stride=(1, 1), padding=(1, 1))
            (1): ReLU(inplace=True)
            (2): Conv2d(192, 192, kernel_size=(3, 3), stride=(1, 1), padding=(1, 1))
          )
        )
        (3): LEB(
          (body): Sequential(
            (0): Conv2d(192, 192, kernel_size=(3, 3), stride=(1, 1), padding=(1, 1))
            (1): ReLU(inplace=True)
            (2): Conv2d(192, 192, kernel_size=(3, 3), stride=(1, 1), padding=(1, 1))
          )
        )
        (4): HSPA(
          (conv_match1): BasicBlock(
            (0): Conv2d(192, 96, kernel_size=(1, 1), stride=(1, 1))
            (1): PReLU(num_parameters=1)
          )
          (conv_match2): BasicBlock(
            (0): Conv2d(192, 96, kernel_size=(1, 1), stride=(1, 1))
            (1): PReLU(num_parameters=1)
          )
          (conv_assembly): BasicBlock(
            (0): Conv2d(192, 192, kernel_size=(1, 1), stride=(1, 1))
            (1): PReLU(num_parameters=1)
          )
          (ST): SoftThresholdingOperation()
        )
        (5): Conv2d(192, 192, kernel_size=(3, 3), stride=(1, 1), padding=(1, 1))
      )
    )
    (3): HSPAM(
      (body): Sequential(
        (0): LEB(
          (body): Sequential(
            (0): Conv2d(192, 192, kernel_size=(3, 3), stride=(1, 1), padding=(1, 1))
            (1): ReLU(inplace=True)
            (2): Conv2d(192, 192, kernel_size=(3, 3), stride=(1, 1), padding=(1, 1))
          )
        )
        (1): LEB(
          (body): Sequential(
            (0): Conv2d(192, 192, kernel_size=(3, 3), stride=(1, 1), padding=(1, 1))
            (1): ReLU(inplace=True)
            (2): Conv2d(192, 192, kernel_size=(3, 3), stride=(1, 1), padding=(1, 1))
          )
        )
        (2): LEB(
          (body): Sequential(
            (0): Conv2d(192, 192, kernel_size=(3, 3), stride=(1, 1), padding=(1, 1))
            (1): ReLU(inplace=True)
            (2): Conv2d(192, 192, kernel_size=(3, 3), stride=(1, 1), padding=(1, 1))
          )
        )
        (3): LEB(
          (body): Sequential(
            (0): Conv2d(192, 192, kernel_size=(3, 3), stride=(1, 1), padding=(1, 1))
            (1): ReLU(inplace=True)
            (2): Conv2d(192, 192, kernel_size=(3, 3), stride=(1, 1), padding=(1, 1))
          )
        )
        (4): HSPA(
          (conv_match1): BasicBlock(
            (0): Conv2d(192, 96, kernel_size=(1, 1), stride=(1, 1))
            (1): PReLU(num_parameters=1)
          )
          (conv_match2): BasicBlock(
            (0): Conv2d(192, 96, kernel_size=(1, 1), stride=(1, 1))
            (1): PReLU(num_parameters=1)
          )
          (conv_assembly): BasicBlock(
            (0): Conv2d(192, 192, kernel_size=(1, 1), stride=(1, 1))
            (1): PReLU(num_parameters=1)
          )
          (ST): SoftThresholdingOperation()
        )
        (5): Conv2d(192, 192, kernel_size=(3, 3), stride=(1, 1), padding=(1, 1))
      )
    )
    (4): HSPAM(
      (body): Sequential(
        (0): LEB(
          (body): Sequential(
            (0): Conv2d(192, 192, kernel_size=(3, 3), stride=(1, 1), padding=(1, 1))
            (1): ReLU(inplace=True)
            (2): Conv2d(192, 192, kernel_size=(3, 3), stride=(1, 1), padding=(1, 1))
          )
        )
        (1): LEB(
          (body): Sequential(
            (0): Conv2d(192, 192, kernel_size=(3, 3), stride=(1, 1), padding=(1, 1))
            (1): ReLU(inplace=True)
            (2): Conv2d(192, 192, kernel_size=(3, 3), stride=(1, 1), padding=(1, 1))
          )
        )
        (2): LEB(
          (body): Sequential(
            (0): Conv2d(192, 192, kernel_size=(3, 3), stride=(1, 1), padding=(1, 1))
            (1): ReLU(inplace=True)
            (2): Conv2d(192, 192, kernel_size=(3, 3), stride=(1, 1), padding=(1, 1))
          )
        )
        (3): LEB(
          (body): Sequential(
            (0): Conv2d(192, 192, kernel_size=(3, 3), stride=(1, 1), padding=(1, 1))
            (1): ReLU(inplace=True)
            (2): Conv2d(192, 192, kernel_size=(3, 3), stride=(1, 1), padding=(1, 1))
          )
        )
        (4): HSPA(
          (conv_match1): BasicBlock(
            (0): Conv2d(192, 96, kernel_size=(1, 1), stride=(1, 1))
            (1): PReLU(num_parameters=1)
          )
          (conv_match2): BasicBlock(
            (0): Conv2d(192, 96, kernel_size=(1, 1), stride=(1, 1))
            (1): PReLU(num_parameters=1)
          )
          (conv_assembly): BasicBlock(
            (0): Conv2d(192, 192, kernel_size=(1, 1), stride=(1, 1))
            (1): PReLU(num_parameters=1)
          )
          (ST): SoftThresholdingOperation()
        )
        (5): Conv2d(192, 192, kernel_size=(3, 3), stride=(1, 1), padding=(1, 1))
      )
    )
    (5): HSPAM(
      (body): Sequential(
        (0): LEB(
          (body): Sequential(
            (0): Conv2d(192, 192, kernel_size=(3, 3), stride=(1, 1), padding=(1, 1))
            (1): ReLU(inplace=True)
            (2): Conv2d(192, 192, kernel_size=(3, 3), stride=(1, 1), padding=(1, 1))
          )
        )
        (1): LEB(
          (body): Sequential(
            (0): Conv2d(192, 192, kernel_size=(3, 3), stride=(1, 1), padding=(1, 1))
            (1): ReLU(inplace=True)
            (2): Conv2d(192, 192, kernel_size=(3, 3), stride=(1, 1), padding=(1, 1))
          )
        )
        (2): LEB(
          (body): Sequential(
            (0): Conv2d(192, 192, kernel_size=(3, 3), stride=(1, 1), padding=(1, 1))
            (1): ReLU(inplace=True)
            (2): Conv2d(192, 192, kernel_size=(3, 3), stride=(1, 1), padding=(1, 1))
          )
        )
        (3): LEB(
          (body): Sequential(
            (0): Conv2d(192, 192, kernel_size=(3, 3), stride=(1, 1), padding=(1, 1))
            (1): ReLU(inplace=True)
            (2): Conv2d(192, 192, kernel_size=(3, 3), stride=(1, 1), padding=(1, 1))
          )
        )
        (4): HSPA(
          (conv_match1): BasicBlock(
            (0): Conv2d(192, 96, kernel_size=(1, 1), stride=(1, 1))
            (1): PReLU(num_parameters=1)
          )
          (conv_match2): BasicBlock(
            (0): Conv2d(192, 96, kernel_size=(1, 1), stride=(1, 1))
            (1): PReLU(num_parameters=1)
          )
          (conv_assembly): BasicBlock(
            (0): Conv2d(192, 192, kernel_size=(1, 1), stride=(1, 1))
            (1): PReLU(num_parameters=1)
          )
          (ST): SoftThresholdingOperation()
        )
        (5): Conv2d(192, 192, kernel_size=(3, 3), stride=(1, 1), padding=(1, 1))
      )
    )
    (6): HSPAM(
      (body): Sequential(
        (0): LEB(
          (body): Sequential(
            (0): Conv2d(192, 192, kernel_size=(3, 3), stride=(1, 1), padding=(1, 1))
            (1): ReLU(inplace=True)
            (2): Conv2d(192, 192, kernel_size=(3, 3), stride=(1, 1), padding=(1, 1))
          )
        )
        (1): LEB(
          (body): Sequential(
            (0): Conv2d(192, 192, kernel_size=(3, 3), stride=(1, 1), padding=(1, 1))
            (1): ReLU(inplace=True)
            (2): Conv2d(192, 192, kernel_size=(3, 3), stride=(1, 1), padding=(1, 1))
          )
        )
        (2): LEB(
          (body): Sequential(
            (0): Conv2d(192, 192, kernel_size=(3, 3), stride=(1, 1), padding=(1, 1))
            (1): ReLU(inplace=True)
            (2): Conv2d(192, 192, kernel_size=(3, 3), stride=(1, 1), padding=(1, 1))
          )
        )
        (3): LEB(
          (body): Sequential(
            (0): Conv2d(192, 192, kernel_size=(3, 3), stride=(1, 1), padding=(1, 1))
            (1): ReLU(inplace=True)
            (2): Conv2d(192, 192, kernel_size=(3, 3), stride=(1, 1), padding=(1, 1))
          )
        )
        (4): HSPA(
          (conv_match1): BasicBlock(
            (0): Conv2d(192, 96, kernel_size=(1, 1), stride=(1, 1))
            (1): PReLU(num_parameters=1)
          )
          (conv_match2): BasicBlock(
            (0): Conv2d(192, 96, kernel_size=(1, 1), stride=(1, 1))
            (1): PReLU(num_parameters=1)
          )
          (conv_assembly): BasicBlock(
            (0): Conv2d(192, 192, kernel_size=(1, 1), stride=(1, 1))
            (1): PReLU(num_parameters=1)
          )
          (ST): SoftThresholdingOperation()
        )
        (5): Conv2d(192, 192, kernel_size=(3, 3), stride=(1, 1), padding=(1, 1))
      )
    )
    (7): HSPAM(
      (body): Sequential(
        (0): LEB(
          (body): Sequential(
            (0): Conv2d(192, 192, kernel_size=(3, 3), stride=(1, 1), padding=(1, 1))
            (1): ReLU(inplace=True)
            (2): Conv2d(192, 192, kernel_size=(3, 3), stride=(1, 1), padding=(1, 1))
          )
        )
        (1): LEB(
          (body): Sequential(
            (0): Conv2d(192, 192, kernel_size=(3, 3), stride=(1, 1), padding=(1, 1))
            (1): ReLU(inplace=True)
            (2): Conv2d(192, 192, kernel_size=(3, 3), stride=(1, 1), padding=(1, 1))
          )
        )
        (2): LEB(
          (body): Sequential(
            (0): Conv2d(192, 192, kernel_size=(3, 3), stride=(1, 1), padding=(1, 1))
            (1): ReLU(inplace=True)
            (2): Conv2d(192, 192, kernel_size=(3, 3), stride=(1, 1), padding=(1, 1))
          )
        )
        (3): LEB(
          (body): Sequential(
            (0): Conv2d(192, 192, kernel_size=(3, 3), stride=(1, 1), padding=(1, 1))
            (1): ReLU(inplace=True)
            (2): Conv2d(192, 192, kernel_size=(3, 3), stride=(1, 1), padding=(1, 1))
          )
        )
        (4): HSPA(
          (conv_match1): BasicBlock(
            (0): Conv2d(192, 96, kernel_size=(1, 1), stride=(1, 1))
            (1): PReLU(num_parameters=1)
          )
          (conv_match2): BasicBlock(
            (0): Conv2d(192, 96, kernel_size=(1, 1), stride=(1, 1))
            (1): PReLU(num_parameters=1)
          )
          (conv_assembly): BasicBlock(
            (0): Conv2d(192, 192, kernel_size=(1, 1), stride=(1, 1))
            (1): PReLU(num_parameters=1)
          )
          (ST): SoftThresholdingOperation()
        )
        (5): Conv2d(192, 192, kernel_size=(3, 3), stride=(1, 1), padding=(1, 1))
      )
    )
    (8): HSPAM(
      (body): Sequential(
        (0): LEB(
          (body): Sequential(
            (0): Conv2d(192, 192, kernel_size=(3, 3), stride=(1, 1), padding=(1, 1))
            (1): ReLU(inplace=True)
            (2): Conv2d(192, 192, kernel_size=(3, 3), stride=(1, 1), padding=(1, 1))
          )
        )
        (1): LEB(
          (body): Sequential(
            (0): Conv2d(192, 192, kernel_size=(3, 3), stride=(1, 1), padding=(1, 1))
            (1): ReLU(inplace=True)
            (2): Conv2d(192, 192, kernel_size=(3, 3), stride=(1, 1), padding=(1, 1))
          )
        )
        (2): LEB(
          (body): Sequential(
            (0): Conv2d(192, 192, kernel_size=(3, 3), stride=(1, 1), padding=(1, 1))
            (1): ReLU(inplace=True)
            (2): Conv2d(192, 192, kernel_size=(3, 3), stride=(1, 1), padding=(1, 1))
          )
        )
        (3): LEB(
          (body): Sequential(
            (0): Conv2d(192, 192, kernel_size=(3, 3), stride=(1, 1), padding=(1, 1))
            (1): ReLU(inplace=True)
            (2): Conv2d(192, 192, kernel_size=(3, 3), stride=(1, 1), padding=(1, 1))
          )
        )
        (4): HSPA(
          (conv_match1): BasicBlock(
            (0): Conv2d(192, 96, kernel_size=(1, 1), stride=(1, 1))
            (1): PReLU(num_parameters=1)
          )
          (conv_match2): BasicBlock(
            (0): Conv2d(192, 96, kernel_size=(1, 1), stride=(1, 1))
            (1): PReLU(num_parameters=1)
          )
          (conv_assembly): BasicBlock(
            (0): Conv2d(192, 192, kernel_size=(1, 1), stride=(1, 1))
            (1): PReLU(num_parameters=1)
          )
          (ST): SoftThresholdingOperation()
        )
        (5): Conv2d(192, 192, kernel_size=(3, 3), stride=(1, 1), padding=(1, 1))
      )
    )
    (9): HSPAM(
      (body): Sequential(
        (0): LEB(
          (body): Sequential(
            (0): Conv2d(192, 192, kernel_size=(3, 3), stride=(1, 1), padding=(1, 1))
            (1): ReLU(inplace=True)
            (2): Conv2d(192, 192, kernel_size=(3, 3), stride=(1, 1), padding=(1, 1))
          )
        )
        (1): LEB(
          (body): Sequential(
            (0): Conv2d(192, 192, kernel_size=(3, 3), stride=(1, 1), padding=(1, 1))
            (1): ReLU(inplace=True)
            (2): Conv2d(192, 192, kernel_size=(3, 3), stride=(1, 1), padding=(1, 1))
          )
        )
        (2): LEB(
          (body): Sequential(
            (0): Conv2d(192, 192, kernel_size=(3, 3), stride=(1, 1), padding=(1, 1))
            (1): ReLU(inplace=True)
            (2): Conv2d(192, 192, kernel_size=(3, 3), stride=(1, 1), padding=(1, 1))
          )
        )
        (3): LEB(
          (body): Sequential(
            (0): Conv2d(192, 192, kernel_size=(3, 3), stride=(1, 1), padding=(1, 1))
            (1): ReLU(inplace=True)
            (2): Conv2d(192, 192, kernel_size=(3, 3), stride=(1, 1), padding=(1, 1))
          )
        )
        (4): HSPA(
          (conv_match1): BasicBlock(
            (0): Conv2d(192, 96, kernel_size=(1, 1), stride=(1, 1))
            (1): PReLU(num_parameters=1)
          )
          (conv_match2): BasicBlock(
            (0): Conv2d(192, 96, kernel_size=(1, 1), stride=(1, 1))
            (1): PReLU(num_parameters=1)
          )
          (conv_assembly): BasicBlock(
            (0): Conv2d(192, 192, kernel_size=(1, 1), stride=(1, 1))
            (1): PReLU(num_parameters=1)
          )
          (ST): SoftThresholdingOperation()
        )
        (5): Conv2d(192, 192, kernel_size=(3, 3), stride=(1, 1), padding=(1, 1))
      )
    )
    (10): Conv2d(192, 192, kernel_size=(3, 3), stride=(1, 1), padding=(1, 1))
  )
  (tail): Sequential(
    (0): Upsampler(
      (0): Conv2d(192, 768, kernel_size=(3, 3), stride=(1, 1), padding=(1, 1))
      (1): PixelShuffle(upscale_factor=2)
      (2): Conv2d(192, 768, kernel_size=(3, 3), stride=(1, 1), padding=(1, 1))
      (3): PixelShuffle(upscale_factor=2)
    )
    (1): Conv2d(192, 3, kernel_size=(3, 3), stride=(1, 1), padding=(1, 1))
  )
)

Evaluation:
[Set5 x4]	PSNR: 31.8601 (Best: 31.8601 @epoch 1)
Forward: 36.08s

Saving...
Total: 36.08s

